…
I0727 08:36:55.366394 11582 net.cpp:323] The NetState phase (0) differed from the phase (1) specified by a rule in layer accuracy
I0727 08:36:55.367301 11582 net.cpp:52] Initializing net from parameters: 
name: "/tmp/scratch/train_test_00001_00000_01037.prototxt"
state {
  phase: TRAIN
}
layer {
  name: "Image_data"
  type: "Data"
  top: "data"
  top: "label"
  include {
    phase: TRAIN
  }
  transform_param {
  }
  data_param {
    source: "/lustre/atlas/proj-shared/hep109/xsy_work/data/minerva_174planecodes/train-lmdb00001"
    batch_size: 16
    backend: LMDB
  }
}
layer {
  name: "Slice Node"
  type: "Slice"
  bottom: "data"
  top: "Slice NodeX1"
  top: "Slice NodeX2"
  top: "data0_1"
  top: "data0_2"
  slice_param {
    slice_point: 2
    slice_point: 4
    slice_point: 6
    axis: 1
  }
}
layer {
  name: "Concatanation Node X views"
  type: "Concat"
  bottom: "Slice NodeX1"
  bottom: "Slice NodeX2"
  top: "data0_0"
  concat_param {
    axis: 3
  }
}
layer {
  name: "conv1_0"
  type: "Convolution"
  bottom: "data0_0"
  top: "conv1_0"
  param {
    lr_mult: 1
    decay_mult: 1
  }
  param {
    lr_mult: 2
    decay_mult: 0
  }
  convolution_param {
    num_output: 12
    weight_filler {
      type: "xavier"
    }
    bias_filler {
      type: "constant"
    }
    pad_h: 3
    pad_w: 1
    kernel_h: 8
    kernel_w: 3
    stride_h: 1
    stride_w: 1
  }
}
layer {
  name: "conv1_1"
  type: "Convolution"
  bottom: "data0_1"
  top: "conv1_1"
  param {
    lr_mult: 1
    decay_mult: 1
  }
  param {
    lr_mult: 2
    decay_mult: 0
  }
  convolution_param {
    num_output: 12
    weight_filler {
      type: "xavier"
    }
    bias_filler {
      type: "constant"
    }
    pad_h: 3
    pad_w: 1
    kernel_h: 8
    kernel_w: 3
    stride_h: 2
    stride_w: 1
  }
}
layer {
  name: "conv1_2"
  type: "Convolution"
  bottom: "data0_2"
  top: "conv1_2"
  param {
    lr_mult: 1
    decay_mult: 1
  }
  param {
    lr_mult: 2
    decay_mult: 0
  }
  convolution_param {
    num_output: 12
    weight_filler {
      type: "xavier"
    }
    bias_filler {
      type: "constant"
    }
    pad_h: 3
    pad_w: 1
    kernel_h: 8
    kernel_w: 3
    stride_h: 2
    stride_w: 1
  }
}
layer {
  name: "relu1_0"
  type: "ReLU"
  bottom: "conv1_0"
  top: "conv1_0"
}
layer {
  name: "relu1_1"
  type: "ReLU"
  bottom: "conv1_1"
  top: "conv1_1"
}
layer {
  name: "relu1_2"
  type: "ReLU"
  bottom: "conv1_2"
  top: "conv1_2"
}
layer {
  name: "pool2_0"
  type: "Pooling"
  bottom: "conv1_0"
  top: "pool2_0"
  pooling_param {
    pool: MAX
    kernel_h: 2
    kernel_w: 1
    stride_h: 2
    stride_w: 1
  }
}
layer {
  name: "pool2_1"
  type: "Pooling"
  bottom: "conv1_1"
  top: "pool2_1"
  pooling_param {
    pool: MAX
    kernel_h: 2
    kernel_w: 1
    stride_h: 2
    stride_w: 1
  }
}
layer {
  name: "pool2_2"
  type: "Pooling"
  bottom: "conv1_2"
  top: "pool2_2"
  pooling_param {
    pool: MAX
    kernel_h: 2
    kernel_w: 1
    stride_h: 2
    stride_w: 1
  }
}
layer {
  name: "drop3_0"
  type: "Dropout"
  bottom: "pool2_0"
  top: "pool2_0"
  dropout_param {
    dropout_ratio: 0.5
  }
}
layer {
  name: "drop3_1"
  type: "Dropout"
  bottom: "pool2_1"
  top: "pool2_1"
  dropout_param {
    dropout_ratio: 0.5
  }
}
layer {
  name: "drop3_2"
  type: "Dropout"
  bottom: "pool2_2"
  top: "pool2_2"
  dropout_param {
    dropout_ratio: 0.5
  }
}
layer {
  name: "conv3_0"
  type: "Convolution"
  bottom: "pool2_0"
  top: "conv3_0"
  param {
    lr_mult: 1
    decay_mult: 1
  }
  param {
    lr_mult: 2
    decay_mult: 0
  }
  convolution_param {
    num_output: 20
    weight_filler {
      type: "xavier"
    }
    bias_filler {
      type: "constant"
    }
    pad_h: 3
    pad_w: 1
    kernel_h: 7
    kernel_w: 3
    stride_h: 1
    stride_w: 1
  }
}
layer {
  name: "conv3_1"
  type: "Convolution"
  bottom: "pool2_1"
  top: "conv3_1"
  param {
    lr_mult: 1
    decay_mult: 1
  }
  param {
    lr_mult: 2
    decay_mult: 0
  }
  convolution_param {
    num_output: 20
    weight_filler {
      type: "xavier"
    }
    bias_filler {
      type: "constant"
    }
    pad_h: 10
    pad_w: 1
    kernel_h: 21
    kernel_w: 3
    stride_h: 4
    stride_w: 1
  }
}
layer {
  name: "conv3_2"
  type: "Convolution"
  bottom: "pool2_2"
  top: "conv3_2"
  param {
    lr_mult: 1
    decay_mult: 1
  }
  param {
    lr_mult: 2
    decay_mult: 0
  }
  convolution_param {
    num_output: 20
    weight_filler {
      type: "xavier"
    }
    bias_filler {
      type: "constant"
    }
    pad_h: 10
    pad_w: 1
    kernel_h: 21
    kernel_w: 3
    stride_h: 4
    stride_w: 1
  }
}
layer {
  name: "relu3_0"
  type: "ReLU"
  bottom: "conv3_0"
  top: "conv3_0"
}
layer {
  name: "relu3_1"
  type: "ReLU"
  bottom: "conv3_1"
  top: "conv3_1"
}
layer {
  name: "relu3_2"
  type: "ReLU"
  bottom: "conv3_2"
  top: "conv3_2"
}
layer {
  name: "pool4_0"
  type: "Pooling"
  bottom: "conv3_0"
  top: "pool4_0"
  pooling_param {
    pool: MAX
    kernel_h: 2
    kernel_w: 6
    stride_h: 2
    stride_w: 6
  }
}
layer {
  name: "pool4_1"
  type: "Pooling"
  bottom: "conv3_1"
  top: "pool4_1"
  pooling_param {
    pool: MAX
    kernel_h: 1
    kernel_w: 1
    stride_h: 1
    stride_w: 1
  }
}
layer {
  name: "pool4_2"
  type: "Pooling"
  bottom: "conv3_2"
  top: "pool4_2"
  pooling_param {
    pool: MAX
    kernel_h: 1
    kernel_w: 1
    stride_h: 1
    stride_w: 1
  }
}
layer {
  name: "sigmoid4_0"
  type: "Sigmoid"
  bottom: "pool4_0"
  top: "pool4_0"
}
layer {
  name: "sigmoid4_1"
  type: "Sigmoid"
  bottom: "pool4_1"
  top: "pool4_1"
}
layer {
  name: "sigmoid4_2"
  type: "Sigmoid"
  bottom: "pool4_2"
  top: "pool4_2"
}
layer {
  name: "conv5_0"
  type: "Convolution"
  bottom: "pool4_0"
  top: "conv5_0"
  param {
    lr_mult: 1
    decay_mult: 1
  }
  param {
    lr_mult: 2
    decay_mult: 0
  }
  convolution_param {
    num_output: 28
    weight_filler {
      type: "xavier"
    }
    bias_filler {
      type: "constant"
    }
    pad_h: 3
    pad_w: 0
    kernel_h: 7
    kernel_w: 1
    stride_h: 1
    stride_w: 1
  }
}
layer {
  name: "conv5_1"
  type: "Convolution"
  bottom: "pool4_1"
  top: "conv5_1"
  param {
    lr_mult: 1
    decay_mult: 1
  }
  param {
    lr_mult: 2
    decay_mult: 0
  }
  convolution_param {
    num_output: 28
    weight_filler {
      type: "xavier"
    }
    bias_filler {
      type: "constant"
    }
    pad_h: 2
    pad_w: 1
    kernel_h: 6
    kernel_w: 3
    stride_h: 2
    stride_w: 1
  }
}
layer {
  name: "conv5_2"
  type: "Convolution"
  bottom: "pool4_2"
  top: "conv5_2"
  param {
    lr_mult: 1
    decay_mult: 1
  }
  param {
    lr_mult: 2
    decay_mult: 0
  }
  convolution_param {
    num_output: 28
    weight_filler {
      type: "xavier"
    }
    bias_filler {
      type: "constant"
    }
    pad_h: 2
    pad_w: 1
    kernel_h: 6
    kernel_w: 3
    stride_h: 2
    stride_w: 1
  }
}
layer {
  name: "relu5_0"
  type: "ReLU"
  bottom: "conv5_0"
  top: "conv5_0"
}
layer {
  name: "relu5_1"
  type: "ReLU"
  bottom: "conv5_1"
  top: "conv5_1"
}
layer {
  name: "relu5_2"
  type: "ReLU"
  bottom: "conv5_2"
  top: "conv5_2"
}
layer {
  name: "pool6_0"
  type: "Pooling"
  bottom: "conv5_0"
  top: "pool6_0"
  pooling_param {
    pool: MAX
    kernel_h: 2
    kernel_w: 1
    stride_h: 2
    stride_w: 1
  }
}
layer {
  name: "pool6_1"
  type: "Pooling"
  bottom: "conv5_1"
  top: "pool6_1"
  pooling_param {
    pool: MAX
    kernel_h: 1
    kernel_w: 1
    stride_h: 1
    stride_w: 1
  }
}
layer {
  name: "pool6_2"
  type: "Pooling"
  bottom: "conv5_2"
  top: "pool6_2"
  pooling_param {
    pool: MAX
    kernel_h: 1
    kernel_w: 1
    stride_h: 1
    stride_w: 1
  }
}
layer {
  name: "conv7_0"
  type: "Convolution"
  bottom: "pool6_0"
  top: "conv7_0"
  param {
    lr_mult: 1
    decay_mult: 1
  }
  param {
    lr_mult: 2
    decay_mult: 0
  }
  convolution_param {
    num_output: 36
    weight_filler {
      type: "xavier"
    }
    bias_filler {
      type: "constant"
    }
    pad_h: 3
    pad_w: 0
    kernel_h: 7
    kernel_w: 1
    stride_h: 1
    stride_w: 1
  }
}
layer {
  name: "conv7_1"
  type: "Convolution"
  bottom: "pool6_1"
  top: "conv7_1"
  param {
    lr_mult: 1
    decay_mult: 1
  }
  param {
    lr_mult: 2
    decay_mult: 0
  }
  convolution_param {
    num_output: 36
    weight_filler {
      type: "xavier"
    }
    bias_filler {
      type: "constant"
    }
    pad_h: 1
    pad_w: 1
    kernel_h: 4
    kernel_w: 3
    stride_h: 2
    stride_w: 1
  }
}
layer {
  name: "conv7_2"
  type: "Convolution"
  bottom: "pool6_2"
  top: "conv7_2"
  param {
    lr_mult: 1
    decay_mult: 1
  }
  param {
    lr_mult: 2
    decay_mult: 0
  }
  convolution_param {
    num_output: 36
    weight_filler {
      type: "xavier"
    }
    bias_filler {
      type: "constant"
    }
    pad_h: 1
    pad_w: 1
    kernel_h: 4
    kernel_w: 3
    stride_h: 2
    stride_w: 1
  }
}
layer {
  name: "relu7_0"
  type: "ReLU"
  bottom: "conv7_0"
  top: "conv7_0"
}
layer {
  name: "relu7_1"
  type: "ReLU"
  bottom: "conv7_1"
  top: "conv7_1"
}
layer {
  name: "relu7_2"
  type: "ReLU"
  bottom: "conv7_2"
  top: "conv7_2"
}
layer {
  name: "pool8_0"
  type: "Pooling"
  bottom: "conv7_0"
  top: "pool8_0"
  pooling_param {
    pool: MAX
    kernel_h: 2
    kernel_w: 1
    stride_h: 2
    stride_w: 1
  }
}
layer {
  name: "pool8_1"
  type: "Pooling"
  bottom: "conv7_1"
  top: "pool8_1"
  pooling_param {
    pool: MAX
    kernel_h: 1
    kernel_w: 1
    stride_h: 1
    stride_w: 1
  }
}
layer {
  name: "pool8_2"
  type: "Pooling"
  bottom: "conv7_2"
  top: "pool8_2"
  pooling_param {
    pool: MAX
    kernel_h: 1
    kernel_w: 1
    stride_h: 1
    stride_w: 1
  }
}
layer {
  name: "flat8_0"
  type: "Flatten"
  bottom: "pool8_0"
  top: "flat8_0"
}
layer {
  name: "flat8_1"
  type: "Flatten"
  bottom: "pool8_1"
  top: "flat8_1"
}
layer {
  name: "flat8_2"
  type: "Flatten"
  bottom: "pool8_2"
  top: "flat8_2"
}
layer {
  name: "concat8_0"
  type: "Concat"
  bottom: "flat8_0"
  bottom: "flat8_1"
  bottom: "flat8_2"
  top: "concat8_0"
}
layer {
  name: "ip9_0"
  type: "InnerProduct"
  bottom: "concat8_0"
  top: "ip9_0"
  param {
    lr_mult: 1
    decay_mult: 1
  }
  param {
    lr_mult: 2
    decay_mult: 0
  }
  inner_product_param {
    num_output: 64
    weight_filler {
      type: "gaussian"
    }
    bias_filler {
      type: "constant"
    }
  }
}
layer {
  name: "drop10_0"
  type: "Dropout"
  bottom: "ip9_0"
  top: "ip9_0"
  dropout_param {
    dropout_ratio: 0.1
  }
}
layer {
  name: "relu9_0"
  type: "ReLU"
  bottom: "ip9_0"
  top: "ip9_0"
}
layer {
  name: "ip10_0"
  type: "InnerProduct"
  bottom: "ip9_0"
  top: "ip10_0"
  param {
    lr_mult: 1
    decay_mult: 1
  }
  param {
    lr_mult: 2
    decay_mult: 0
  }
  inner_product_param {
    num_output: 64
    weight_filler {
      type: "xavier"
    }
    bias_filler {
      type: "constant"
    }
  }
}
layer {
  name: "drop11_0"
  type: "Dropout"
  bottom: "ip10_0"
  top: "ip10_0"
  dropout_param {
    dropout_ratio: 0.1
  }
}
layer {
  name: "relu10_0"
  type: "ReLU"
  bottom: "ip10_0"
  top: "ip10_0"
}
layer {
  name: "finalip"
  type: "InnerProduct"
  bottom: "ip10_0"
  top: "ipFinal"
  inner_product_param {
    num_output: 174
  }
}
layer {
  name: "loss"
  type: "SoftmaxWithLoss"
  bottom: "ipFinal"
  bottom: "label"
  top: "loss"
}
I0727 08:36:55.367601 11582 layer_factory.hpp:77] Creating layer Image_data
I0727 08:36:55.376448 11582 net.cpp:94] Creating Layer Image_data
I0727 08:36:55.376471 11582 net.cpp:409] Image_data -> data
I0727 08:36:55.376497 11582 net.cpp:409] Image_data -> label
I0727 08:36:55.407379 11603 db_lmdb.cpp:35] Opened lmdb /lustre/atlas/proj-shared/hep109/xsy_work/data/minerva_174planecodes/train-lmdb00001
I0727 08:36:55.426007 11582 data_layer.cpp:76] output data size: 16,8,127,47
I0727 08:36:55.443846 11582 net.cpp:144] Setting up Image_data
I0727 08:36:55.443876 11582 net.cpp:151] Top shape: 16 8 127 47 (764032)
I0727 08:36:55.443888 11582 net.cpp:151] Top shape: 16 (16)
I0727 08:36:55.443905 11582 net.cpp:159] Memory required for data: 3056192
I0727 08:36:55.443922 11582 layer_factory.hpp:77] Creating layer Slice Node
I0727 08:36:55.443969 11582 net.cpp:94] Creating Layer Slice Node
I0727 08:36:55.443980 11582 net.cpp:435] Slice Node <- data
I0727 08:36:55.444003 11582 net.cpp:409] Slice Node -> Slice NodeX1
I0727 08:36:55.444025 11582 net.cpp:409] Slice Node -> Slice NodeX2
I0727 08:36:55.444051 11582 net.cpp:409] Slice Node -> data0_1
I0727 08:36:55.444066 11582 net.cpp:409] Slice Node -> data0_2
I0727 08:36:55.451143 11582 net.cpp:144] Setting up Slice Node
I0727 08:36:55.451159 11582 net.cpp:151] Top shape: 16 2 127 47 (191008)
I0727 08:36:55.451169 11582 net.cpp:151] Top shape: 16 2 127 47 (191008)
I0727 08:36:55.451180 11582 net.cpp:151] Top shape: 16 2 127 47 (191008)
I0727 08:36:55.451190 11582 net.cpp:151] Top shape: 16 2 127 47 (191008)
I0727 08:36:55.451197 11582 net.cpp:159] Memory required for data: 6112320
I0727 08:36:55.451205 11582 layer_factory.hpp:77] Creating layer Concatanation Node X views
I0727 08:36:55.451221 11582 net.cpp:94] Creating Layer Concatanation Node X views
I0727 08:36:55.451230 11582 net.cpp:435] Concatanation Node X views <- Slice NodeX1
I0727 08:36:55.451239 11582 net.cpp:435] Concatanation Node X views <- Slice NodeX2
I0727 08:36:55.451251 11582 net.cpp:409] Concatanation Node X views -> data0_0
I0727 08:36:55.451300 11582 net.cpp:144] Setting up Concatanation Node X views
I0727 08:36:55.451313 11582 net.cpp:151] Top shape: 16 2 127 94 (382016)
I0727 08:36:55.451319 11582 net.cpp:159] Memory required for data: 7640384
I0727 08:36:55.451328 11582 layer_factory.hpp:77] Creating layer conv1_0
I0727 08:36:55.451349 11582 net.cpp:94] Creating Layer conv1_0
I0727 08:36:55.451356 11582 net.cpp:435] conv1_0 <- data0_0
I0727 08:36:55.451369 11582 net.cpp:409] conv1_0 -> conv1_0
I0727 08:36:55.453696 11620 blocking_queue.cpp:50] Waiting for data
I0727 08:36:55.490108 11582 net.cpp:144] Setting up conv1_0
I0727 08:36:55.490134 11582 net.cpp:151] Top shape: 16 12 126 94 (2274048)
I0727 08:36:55.490142 11582 net.cpp:159] Memory required for data: 16736576
I0727 08:36:55.490169 11582 layer_factory.hpp:77] Creating layer conv1_1
I0727 08:36:55.490190 11582 net.cpp:94] Creating Layer conv1_1
I0727 08:36:55.490200 11582 net.cpp:435] conv1_1 <- data0_1
I0727 08:36:55.490211 11582 net.cpp:409] conv1_1 -> conv1_1
I0727 08:36:55.505563 11582 net.cpp:144] Setting up conv1_1
I0727 08:36:55.505587 11582 net.cpp:151] Top shape: 16 12 63 47 (568512)
I0727 08:36:55.505596 11582 net.cpp:159] Memory required for data: 19010624
I0727 08:36:55.505614 11582 layer_factory.hpp:77] Creating layer conv1_2
I0727 08:36:55.505632 11582 net.cpp:94] Creating Layer conv1_2
I0727 08:36:55.505640 11582 net.cpp:435] conv1_2 <- data0_2
I0727 08:36:55.505653 11582 net.cpp:409] conv1_2 -> conv1_2
I0727 08:36:55.520030 11582 net.cpp:144] Setting up conv1_2
I0727 08:36:55.520052 11582 net.cpp:151] Top shape: 16 12 63 47 (568512)
I0727 08:36:55.520061 11582 net.cpp:159] Memory required for data: 21284672
I0727 08:36:55.520079 11582 layer_factory.hpp:77] Creating layer relu1_0
I0727 08:36:55.520097 11582 net.cpp:94] Creating Layer relu1_0
I0727 08:36:55.520107 11582 net.cpp:435] relu1_0 <- conv1_0
I0727 08:36:55.520123 11582 net.cpp:396] relu1_0 -> conv1_0 (in-place)
I0727 08:36:55.520151 11582 net.cpp:144] Setting up relu1_0
I0727 08:36:55.520162 11582 net.cpp:151] Top shape: 16 12 126 94 (2274048)
I0727 08:36:55.520169 11582 net.cpp:159] Memory required for data: 30380864
I0727 08:36:55.520177 11582 layer_factory.hpp:77] Creating layer relu1_1
I0727 08:36:55.520187 11582 net.cpp:94] Creating Layer relu1_1
I0727 08:36:55.520202 11582 net.cpp:435] relu1_1 <- conv1_1
I0727 08:36:55.520212 11582 net.cpp:396] relu1_1 -> conv1_1 (in-place)
I0727 08:36:55.520225 11582 net.cpp:144] Setting up relu1_1
I0727 08:36:55.520234 11582 net.cpp:151] Top shape: 16 12 63 47 (568512)
I0727 08:36:55.520241 11582 net.cpp:159] Memory required for data: 32654912
I0727 08:36:55.520249 11582 layer_factory.hpp:77] Creating layer relu1_2
I0727 08:36:55.520262 11582 net.cpp:94] Creating Layer relu1_2
I0727 08:36:55.520268 11582 net.cpp:435] relu1_2 <- conv1_2
I0727 08:36:55.520278 11582 net.cpp:396] relu1_2 -> conv1_2 (in-place)
I0727 08:36:55.520296 11582 net.cpp:144] Setting up relu1_2
I0727 08:36:55.520306 11582 net.cpp:151] Top shape: 16 12 63 47 (568512)
I0727 08:36:55.520313 11582 net.cpp:159] Memory required for data: 34928960
I0727 08:36:55.520320 11582 layer_factory.hpp:77] Creating layer pool2_0
I0727 08:36:55.520334 11582 net.cpp:94] Creating Layer pool2_0
I0727 08:36:55.520341 11582 net.cpp:435] pool2_0 <- conv1_0
I0727 08:36:55.520350 11582 net.cpp:409] pool2_0 -> pool2_0
I0727 08:36:55.520439 11582 net.cpp:144] Setting up pool2_0
I0727 08:36:55.520450 11582 net.cpp:151] Top shape: 16 12 63 94 (1137024)
I0727 08:36:55.520457 11582 net.cpp:159] Memory required for data: 39477056
I0727 08:36:55.520464 11582 layer_factory.hpp:77] Creating layer pool2_1
I0727 08:36:55.520474 11582 net.cpp:94] Creating Layer pool2_1
I0727 08:36:55.520481 11582 net.cpp:435] pool2_1 <- conv1_1
I0727 08:36:55.520491 11582 net.cpp:409] pool2_1 -> pool2_1
I0727 08:36:55.520557 11582 net.cpp:144] Setting up pool2_1
I0727 08:36:55.520568 11582 net.cpp:151] Top shape: 16 12 32 47 (288768)
I0727 08:36:55.520576 11582 net.cpp:159] Memory required for data: 40632128
I0727 08:36:55.520582 11582 layer_factory.hpp:77] Creating layer pool2_2
I0727 08:36:55.520592 11582 net.cpp:94] Creating Layer pool2_2
I0727 08:36:55.520599 11582 net.cpp:435] pool2_2 <- conv1_2
I0727 08:36:55.520609 11582 net.cpp:409] pool2_2 -> pool2_2
I0727 08:36:55.520670 11582 net.cpp:144] Setting up pool2_2
I0727 08:36:55.520680 11582 net.cpp:151] Top shape: 16 12 32 47 (288768)
I0727 08:36:55.520687 11582 net.cpp:159] Memory required for data: 41787200
I0727 08:36:55.520694 11582 layer_factory.hpp:77] Creating layer drop3_0
I0727 08:36:55.520707 11582 net.cpp:94] Creating Layer drop3_0
I0727 08:36:55.520715 11582 net.cpp:435] drop3_0 <- pool2_0
I0727 08:36:55.520725 11582 net.cpp:396] drop3_0 -> pool2_0 (in-place)
I0727 08:36:55.520766 11582 net.cpp:144] Setting up drop3_0
I0727 08:36:55.520776 11582 net.cpp:151] Top shape: 16 12 63 94 (1137024)
I0727 08:36:55.520782 11582 net.cpp:159] Memory required for data: 46335296
I0727 08:36:55.520789 11582 layer_factory.hpp:77] Creating layer drop3_1
I0727 08:36:55.520799 11582 net.cpp:94] Creating Layer drop3_1
I0727 08:36:55.520807 11582 net.cpp:435] drop3_1 <- pool2_1
I0727 08:36:55.520817 11582 net.cpp:396] drop3_1 -> pool2_1 (in-place)
I0727 08:36:55.520853 11582 net.cpp:144] Setting up drop3_1
I0727 08:36:55.520862 11582 net.cpp:151] Top shape: 16 12 32 47 (288768)
I0727 08:36:55.520869 11582 net.cpp:159] Memory required for data: 47490368
I0727 08:36:55.520884 11582 layer_factory.hpp:77] Creating layer drop3_2
I0727 08:36:55.520895 11582 net.cpp:94] Creating Layer drop3_2
I0727 08:36:55.520901 11582 net.cpp:435] drop3_2 <- pool2_2
I0727 08:36:55.520911 11582 net.cpp:396] drop3_2 -> pool2_2 (in-place)
I0727 08:36:55.520957 11582 net.cpp:144] Setting up drop3_2
I0727 08:36:55.520969 11582 net.cpp:151] Top shape: 16 12 32 47 (288768)
I0727 08:36:55.520977 11582 net.cpp:159] Memory required for data: 48645440
I0727 08:36:55.520987 11582 layer_factory.hpp:77] Creating layer conv3_0
I0727 08:36:55.521006 11582 net.cpp:94] Creating Layer conv3_0
I0727 08:36:55.521014 11582 net.cpp:435] conv3_0 <- pool2_0
I0727 08:36:55.521028 11582 net.cpp:409] conv3_0 -> conv3_0
I0727 08:36:55.547682 11582 net.cpp:144] Setting up conv3_0
I0727 08:36:55.547706 11582 net.cpp:151] Top shape: 16 20 63 94 (1895040)
I0727 08:36:55.547716 11582 net.cpp:159] Memory required for data: 56225600
I0727 08:36:55.547744 11582 layer_factory.hpp:77] Creating layer conv3_1
I0727 08:36:55.547765 11582 net.cpp:94] Creating Layer conv3_1
I0727 08:36:55.547775 11582 net.cpp:435] conv3_1 <- pool2_1
I0727 08:36:55.547789 11582 net.cpp:409] conv3_1 -> conv3_1
I0727 08:36:55.563961 11582 net.cpp:144] Setting up conv3_1
I0727 08:36:55.563985 11582 net.cpp:151] Top shape: 16 20 8 47 (120320)
I0727 08:36:55.563994 11582 net.cpp:159] Memory required for data: 56706880
I0727 08:36:55.564016 11582 layer_factory.hpp:77] Creating layer conv3_2
I0727 08:36:55.564036 11582 net.cpp:94] Creating Layer conv3_2
I0727 08:36:55.564046 11582 net.cpp:435] conv3_2 <- pool2_2
I0727 08:36:55.564060 11582 net.cpp:409] conv3_2 -> conv3_2
I0727 08:36:55.580111 11582 net.cpp:144] Setting up conv3_2
I0727 08:36:55.580135 11582 net.cpp:151] Top shape: 16 20 8 47 (120320)
I0727 08:36:55.580144 11582 net.cpp:159] Memory required for data: 57188160
I0727 08:36:55.580162 11582 layer_factory.hpp:77] Creating layer relu3_0
I0727 08:36:55.580176 11582 net.cpp:94] Creating Layer relu3_0
I0727 08:36:55.580185 11582 net.cpp:435] relu3_0 <- conv3_0
I0727 08:36:55.580198 11582 net.cpp:396] relu3_0 -> conv3_0 (in-place)
I0727 08:36:55.580214 11582 net.cpp:144] Setting up relu3_0
I0727 08:36:55.580227 11582 net.cpp:151] Top shape: 16 20 63 94 (1895040)
I0727 08:36:55.580235 11582 net.cpp:159] Memory required for data: 64768320
I0727 08:36:55.580243 11582 layer_factory.hpp:77] Creating layer relu3_1
I0727 08:36:55.580255 11582 net.cpp:94] Creating Layer relu3_1
I0727 08:36:55.580263 11582 net.cpp:435] relu3_1 <- conv3_1
I0727 08:36:55.580274 11582 net.cpp:396] relu3_1 -> conv3_1 (in-place)
I0727 08:36:55.580293 11582 net.cpp:144] Setting up relu3_1
I0727 08:36:55.580304 11582 net.cpp:151] Top shape: 16 20 8 47 (120320)
I0727 08:36:55.580312 11582 net.cpp:159] Memory required for data: 65249600
I0727 08:36:55.580320 11582 layer_factory.hpp:77] Creating layer relu3_2
I0727 08:36:55.580332 11582 net.cpp:94] Creating Layer relu3_2
I0727 08:36:55.580340 11582 net.cpp:435] relu3_2 <- conv3_2
I0727 08:36:55.580351 11582 net.cpp:396] relu3_2 -> conv3_2 (in-place)
I0727 08:36:55.580365 11582 net.cpp:144] Setting up relu3_2
I0727 08:36:55.580376 11582 net.cpp:151] Top shape: 16 20 8 47 (120320)
I0727 08:36:55.580384 11582 net.cpp:159] Memory required for data: 65730880
I0727 08:36:55.580392 11582 layer_factory.hpp:77] Creating layer pool4_0
I0727 08:36:55.580406 11582 net.cpp:94] Creating Layer pool4_0
I0727 08:36:55.580416 11582 net.cpp:435] pool4_0 <- conv3_0
I0727 08:36:55.580428 11582 net.cpp:409] pool4_0 -> pool4_0
I0727 08:36:55.580520 11582 net.cpp:144] Setting up pool4_0
I0727 08:36:55.580533 11582 net.cpp:151] Top shape: 16 20 32 16 (163840)
I0727 08:36:55.580541 11582 net.cpp:159] Memory required for data: 66386240
I0727 08:36:55.580549 11582 layer_factory.hpp:77] Creating layer pool4_1
I0727 08:36:55.580561 11582 net.cpp:94] Creating Layer pool4_1
I0727 08:36:55.580569 11582 net.cpp:435] pool4_1 <- conv3_1
I0727 08:36:55.580581 11582 net.cpp:409] pool4_1 -> pool4_1
I0727 08:36:55.580652 11582 net.cpp:144] Setting up pool4_1
I0727 08:36:55.580663 11582 net.cpp:151] Top shape: 16 20 8 47 (120320)
I0727 08:36:55.580672 11582 net.cpp:159] Memory required for data: 66867520
I0727 08:36:55.580680 11582 layer_factory.hpp:77] Creating layer pool4_2
I0727 08:36:55.580691 11582 net.cpp:94] Creating Layer pool4_2
I0727 08:36:55.580700 11582 net.cpp:435] pool4_2 <- conv3_2
I0727 08:36:55.580711 11582 net.cpp:409] pool4_2 -> pool4_2
I0727 08:36:55.580781 11582 net.cpp:144] Setting up pool4_2
I0727 08:36:55.580792 11582 net.cpp:151] Top shape: 16 20 8 47 (120320)
I0727 08:36:55.580806 11582 net.cpp:159] Memory required for data: 67348800
I0727 08:36:55.580816 11582 layer_factory.hpp:77] Creating layer sigmoid4_0
I0727 08:36:55.580826 11582 net.cpp:94] Creating Layer sigmoid4_0
I0727 08:36:55.580835 11582 net.cpp:435] sigmoid4_0 <- pool4_0
I0727 08:36:55.580847 11582 net.cpp:396] sigmoid4_0 -> pool4_0 (in-place)
I0727 08:36:55.580868 11582 net.cpp:144] Setting up sigmoid4_0
I0727 08:36:55.580886 11582 net.cpp:151] Top shape: 16 20 32 16 (163840)
I0727 08:36:55.580894 11582 net.cpp:159] Memory required for data: 68004160
I0727 08:36:55.580902 11582 layer_factory.hpp:77] Creating layer sigmoid4_1
I0727 08:36:55.580914 11582 net.cpp:94] Creating Layer sigmoid4_1
I0727 08:36:55.580922 11582 net.cpp:435] sigmoid4_1 <- pool4_1
I0727 08:36:55.580935 11582 net.cpp:396] sigmoid4_1 -> pool4_1 (in-place)
I0727 08:36:55.580947 11582 net.cpp:144] Setting up sigmoid4_1
I0727 08:36:55.580958 11582 net.cpp:151] Top shape: 16 20 8 47 (120320)
I0727 08:36:55.580966 11582 net.cpp:159] Memory required for data: 68485440
I0727 08:36:55.580976 11582 layer_factory.hpp:77] Creating layer sigmoid4_2
I0727 08:36:55.580986 11582 net.cpp:94] Creating Layer sigmoid4_2
I0727 08:36:55.580994 11582 net.cpp:435] sigmoid4_2 <- pool4_2
I0727 08:36:55.581005 11582 net.cpp:396] sigmoid4_2 -> pool4_2 (in-place)
I0727 08:36:55.581018 11582 net.cpp:144] Setting up sigmoid4_2
I0727 08:36:55.581029 11582 net.cpp:151] Top shape: 16 20 8 47 (120320)
I0727 08:36:55.581037 11582 net.cpp:159] Memory required for data: 68966720
I0727 08:36:55.581053 11582 layer_factory.hpp:77] Creating layer conv5_0
I0727 08:36:55.581075 11582 net.cpp:94] Creating Layer conv5_0
I0727 08:36:55.581084 11582 net.cpp:435] conv5_0 <- pool4_0
I0727 08:36:55.581096 11582 net.cpp:409] conv5_0 -> conv5_0
I0727 08:36:55.594560 11582 net.cpp:144] Setting up conv5_0
I0727 08:36:55.594581 11582 net.cpp:151] Top shape: 16 28 32 16 (229376)
I0727 08:36:55.594589 11582 net.cpp:159] Memory required for data: 69884224
I0727 08:36:55.594604 11582 layer_factory.hpp:77] Creating layer conv5_1
I0727 08:36:55.594620 11582 net.cpp:94] Creating Layer conv5_1
I0727 08:36:55.594629 11582 net.cpp:435] conv5_1 <- pool4_1
I0727 08:36:55.594641 11582 net.cpp:409] conv5_1 -> conv5_1
I0727 08:36:55.600438 11582 net.cpp:144] Setting up conv5_1
I0727 08:36:55.600462 11582 net.cpp:151] Top shape: 16 28 4 47 (84224)
I0727 08:36:55.600471 11582 net.cpp:159] Memory required for data: 70221120
I0727 08:36:55.600488 11582 layer_factory.hpp:77] Creating layer conv5_2
I0727 08:36:55.600514 11582 net.cpp:94] Creating Layer conv5_2
I0727 08:36:55.600524 11582 net.cpp:435] conv5_2 <- pool4_2
I0727 08:36:55.600538 11582 net.cpp:409] conv5_2 -> conv5_2
I0727 08:36:55.606662 11582 net.cpp:144] Setting up conv5_2
I0727 08:36:55.606681 11582 net.cpp:151] Top shape: 16 28 4 47 (84224)
I0727 08:36:55.606690 11582 net.cpp:159] Memory required for data: 70558016
I0727 08:36:55.606709 11582 layer_factory.hpp:77] Creating layer relu5_0
I0727 08:36:55.606722 11582 net.cpp:94] Creating Layer relu5_0
I0727 08:36:55.606731 11582 net.cpp:435] relu5_0 <- conv5_0
I0727 08:36:55.606743 11582 net.cpp:396] relu5_0 -> conv5_0 (in-place)
I0727 08:36:55.606760 11582 net.cpp:144] Setting up relu5_0
I0727 08:36:55.606770 11582 net.cpp:151] Top shape: 16 28 32 16 (229376)
I0727 08:36:55.606778 11582 net.cpp:159] Memory required for data: 71475520
I0727 08:36:55.606787 11582 layer_factory.hpp:77] Creating layer relu5_1
I0727 08:36:55.606802 11582 net.cpp:94] Creating Layer relu5_1
I0727 08:36:55.606812 11582 net.cpp:435] relu5_1 <- conv5_1
I0727 08:36:55.606823 11582 net.cpp:396] relu5_1 -> conv5_1 (in-place)
I0727 08:36:55.606837 11582 net.cpp:144] Setting up relu5_1
I0727 08:36:55.606853 11582 net.cpp:151] Top shape: 16 28 4 47 (84224)
I0727 08:36:55.606860 11582 net.cpp:159] Memory required for data: 71812416
I0727 08:36:55.606868 11582 layer_factory.hpp:77] Creating layer relu5_2
I0727 08:36:55.606880 11582 net.cpp:94] Creating Layer relu5_2
I0727 08:36:55.606889 11582 net.cpp:435] relu5_2 <- conv5_2
I0727 08:36:55.606905 11582 net.cpp:396] relu5_2 -> conv5_2 (in-place)
I0727 08:36:55.606920 11582 net.cpp:144] Setting up relu5_2
I0727 08:36:55.606930 11582 net.cpp:151] Top shape: 16 28 4 47 (84224)
I0727 08:36:55.606938 11582 net.cpp:159] Memory required for data: 72149312
I0727 08:36:55.606946 11582 layer_factory.hpp:77] Creating layer pool6_0
I0727 08:36:55.606962 11582 net.cpp:94] Creating Layer pool6_0
I0727 08:36:55.606978 11582 net.cpp:435] pool6_0 <- conv5_0
I0727 08:36:55.606990 11582 net.cpp:409] pool6_0 -> pool6_0
I0727 08:36:55.607084 11582 net.cpp:144] Setting up pool6_0
I0727 08:36:55.607096 11582 net.cpp:151] Top shape: 16 28 16 16 (114688)
I0727 08:36:55.607103 11582 net.cpp:159] Memory required for data: 72608064
I0727 08:36:55.607112 11582 layer_factory.hpp:77] Creating layer pool6_1
I0727 08:36:55.607123 11582 net.cpp:94] Creating Layer pool6_1
I0727 08:36:55.607136 11582 net.cpp:435] pool6_1 <- conv5_1
I0727 08:36:55.607147 11582 net.cpp:409] pool6_1 -> pool6_1
I0727 08:36:55.607228 11582 net.cpp:144] Setting up pool6_1
I0727 08:36:55.607240 11582 net.cpp:151] Top shape: 16 28 4 47 (84224)
I0727 08:36:55.607247 11582 net.cpp:159] Memory required for data: 72944960
I0727 08:36:55.607255 11582 layer_factory.hpp:77] Creating layer pool6_2
I0727 08:36:55.607266 11582 net.cpp:94] Creating Layer pool6_2
I0727 08:36:55.607275 11582 net.cpp:435] pool6_2 <- conv5_2
I0727 08:36:55.607290 11582 net.cpp:409] pool6_2 -> pool6_2
I0727 08:36:55.607368 11582 net.cpp:144] Setting up pool6_2
I0727 08:36:55.607379 11582 net.cpp:151] Top shape: 16 28 4 47 (84224)
I0727 08:36:55.607388 11582 net.cpp:159] Memory required for data: 73281856
I0727 08:36:55.607395 11582 layer_factory.hpp:77] Creating layer conv7_0
I0727 08:36:55.607430 11582 net.cpp:94] Creating Layer conv7_0
I0727 08:36:55.607446 11582 net.cpp:435] conv7_0 <- pool6_0
I0727 08:36:55.607458 11582 net.cpp:409] conv7_0 -> conv7_0
I0727 08:36:55.613834 11582 net.cpp:144] Setting up conv7_0
I0727 08:36:55.613858 11582 net.cpp:151] Top shape: 16 36 16 16 (147456)
I0727 08:36:55.613868 11582 net.cpp:159] Memory required for data: 73871680
I0727 08:36:55.613885 11582 layer_factory.hpp:77] Creating layer conv7_1
I0727 08:36:55.613911 11582 net.cpp:94] Creating Layer conv7_1
I0727 08:36:55.613922 11582 net.cpp:435] conv7_1 <- pool6_1
I0727 08:36:55.613941 11582 net.cpp:409] conv7_1 -> conv7_1
I0727 08:36:55.619276 11582 net.cpp:144] Setting up conv7_1
I0727 08:36:55.619295 11582 net.cpp:151] Top shape: 16 36 2 47 (54144)
I0727 08:36:55.619303 11582 net.cpp:159] Memory required for data: 74088256
I0727 08:36:55.619320 11582 layer_factory.hpp:77] Creating layer conv7_2
I0727 08:36:55.619344 11582 net.cpp:94] Creating Layer conv7_2
I0727 08:36:55.619359 11582 net.cpp:435] conv7_2 <- pool6_2
I0727 08:36:55.619374 11582 net.cpp:409] conv7_2 -> conv7_2
I0727 08:36:55.624071 11582 net.cpp:144] Setting up conv7_2
I0727 08:36:55.624089 11582 net.cpp:151] Top shape: 16 36 2 47 (54144)
I0727 08:36:55.624095 11582 net.cpp:159] Memory required for data: 74304832
I0727 08:36:55.624109 11582 layer_factory.hpp:77] Creating layer relu7_0
I0727 08:36:55.624120 11582 net.cpp:94] Creating Layer relu7_0
I0727 08:36:55.624128 11582 net.cpp:435] relu7_0 <- conv7_0
I0727 08:36:55.624150 11582 net.cpp:396] relu7_0 -> conv7_0 (in-place)
I0727 08:36:55.624164 11582 net.cpp:144] Setting up relu7_0
I0727 08:36:55.624176 11582 net.cpp:151] Top shape: 16 36 16 16 (147456)
I0727 08:36:55.624183 11582 net.cpp:159] Memory required for data: 74894656
I0727 08:36:55.624191 11582 layer_factory.hpp:77] Creating layer relu7_1
I0727 08:36:55.624200 11582 net.cpp:94] Creating Layer relu7_1
I0727 08:36:55.624208 11582 net.cpp:435] relu7_1 <- conv7_1
I0727 08:36:55.624218 11582 net.cpp:396] relu7_1 -> conv7_1 (in-place)
I0727 08:36:55.624229 11582 net.cpp:144] Setting up relu7_1
I0727 08:36:55.624243 11582 net.cpp:151] Top shape: 16 36 2 47 (54144)
I0727 08:36:55.624250 11582 net.cpp:159] Memory required for data: 75111232
I0727 08:36:55.624258 11582 layer_factory.hpp:77] Creating layer relu7_2
I0727 08:36:55.624267 11582 net.cpp:94] Creating Layer relu7_2
I0727 08:36:55.624284 11582 net.cpp:435] relu7_2 <- conv7_2
I0727 08:36:55.624294 11582 net.cpp:396] relu7_2 -> conv7_2 (in-place)
I0727 08:36:55.624306 11582 net.cpp:144] Setting up relu7_2
I0727 08:36:55.624316 11582 net.cpp:151] Top shape: 16 36 2 47 (54144)
I0727 08:36:55.624323 11582 net.cpp:159] Memory required for data: 75327808
I0727 08:36:55.624338 11582 layer_factory.hpp:77] Creating layer pool8_0
I0727 08:36:55.624357 11582 net.cpp:94] Creating Layer pool8_0
I0727 08:36:55.624366 11582 net.cpp:435] pool8_0 <- conv7_0
I0727 08:36:55.624377 11582 net.cpp:409] pool8_0 -> pool8_0
I0727 08:36:55.624469 11582 net.cpp:144] Setting up pool8_0
I0727 08:36:55.624481 11582 net.cpp:151] Top shape: 16 36 8 16 (73728)
I0727 08:36:55.624488 11582 net.cpp:159] Memory required for data: 75622720
I0727 08:36:55.624496 11582 layer_factory.hpp:77] Creating layer pool8_1
I0727 08:36:55.624506 11582 net.cpp:94] Creating Layer pool8_1
I0727 08:36:55.624514 11582 net.cpp:435] pool8_1 <- conv7_1
I0727 08:36:55.624527 11582 net.cpp:409] pool8_1 -> pool8_1
I0727 08:36:55.624604 11582 net.cpp:144] Setting up pool8_1
I0727 08:36:55.624619 11582 net.cpp:151] Top shape: 16 36 2 47 (54144)
I0727 08:36:55.624626 11582 net.cpp:159] Memory required for data: 75839296
I0727 08:36:55.624634 11582 layer_factory.hpp:77] Creating layer pool8_2
I0727 08:36:55.624644 11582 net.cpp:94] Creating Layer pool8_2
I0727 08:36:55.624651 11582 net.cpp:435] pool8_2 <- conv7_2
I0727 08:36:55.624660 11582 net.cpp:409] pool8_2 -> pool8_2
I0727 08:36:55.624740 11582 net.cpp:144] Setting up pool8_2
I0727 08:36:55.624752 11582 net.cpp:151] Top shape: 16 36 2 47 (54144)
I0727 08:36:55.624759 11582 net.cpp:159] Memory required for data: 76055872
I0727 08:36:55.624766 11582 layer_factory.hpp:77] Creating layer flat8_0
I0727 08:36:55.624776 11582 net.cpp:94] Creating Layer flat8_0
I0727 08:36:55.624784 11582 net.cpp:435] flat8_0 <- pool8_0
I0727 08:36:55.624804 11582 net.cpp:409] flat8_0 -> flat8_0
I0727 08:36:55.624860 11582 net.cpp:144] Setting up flat8_0
I0727 08:36:55.624869 11582 net.cpp:151] Top shape: 16 4608 (73728)
I0727 08:36:55.624876 11582 net.cpp:159] Memory required for data: 76350784
I0727 08:36:55.624884 11582 layer_factory.hpp:77] Creating layer flat8_1
I0727 08:36:55.624893 11582 net.cpp:94] Creating Layer flat8_1
I0727 08:36:55.624902 11582 net.cpp:435] flat8_1 <- pool8_1
I0727 08:36:55.624910 11582 net.cpp:409] flat8_1 -> flat8_1
I0727 08:36:55.624959 11582 net.cpp:144] Setting up flat8_1
I0727 08:36:55.624971 11582 net.cpp:151] Top shape: 16 3384 (54144)
I0727 08:36:55.624979 11582 net.cpp:159] Memory required for data: 76567360
I0727 08:36:55.624985 11582 layer_factory.hpp:77] Creating layer flat8_2
I0727 08:36:55.624995 11582 net.cpp:94] Creating Layer flat8_2
I0727 08:36:55.625003 11582 net.cpp:435] flat8_2 <- pool8_2
I0727 08:36:55.625020 11582 net.cpp:409] flat8_2 -> flat8_2
I0727 08:36:55.625064 11582 net.cpp:144] Setting up flat8_2
I0727 08:36:55.625075 11582 net.cpp:151] Top shape: 16 3384 (54144)
I0727 08:36:55.625082 11582 net.cpp:159] Memory required for data: 76783936
I0727 08:36:55.625089 11582 layer_factory.hpp:77] Creating layer concat8_0
I0727 08:36:55.625099 11582 net.cpp:94] Creating Layer concat8_0
I0727 08:36:55.625106 11582 net.cpp:435] concat8_0 <- flat8_0
I0727 08:36:55.625115 11582 net.cpp:435] concat8_0 <- flat8_1
I0727 08:36:55.625124 11582 net.cpp:435] concat8_0 <- flat8_2
I0727 08:36:55.625133 11582 net.cpp:409] concat8_0 -> concat8_0
I0727 08:36:55.625186 11582 net.cpp:144] Setting up concat8_0
I0727 08:36:55.625197 11582 net.cpp:151] Top shape: 16 11376 (182016)
I0727 08:36:55.625205 11582 net.cpp:159] Memory required for data: 77512000
I0727 08:36:55.625212 11582 layer_factory.hpp:77] Creating layer ip9_0
I0727 08:36:55.625226 11582 net.cpp:94] Creating Layer ip9_0
I0727 08:36:55.625234 11582 net.cpp:435] ip9_0 <- concat8_0
I0727 08:36:55.625246 11582 net.cpp:409] ip9_0 -> ip9_0
I0727 08:36:55.651819 11582 net.cpp:144] Setting up ip9_0
I0727 08:36:55.651842 11582 net.cpp:151] Top shape: 16 64 (1024)
I0727 08:36:55.651856 11582 net.cpp:159] Memory required for data: 77516096
I0727 08:36:55.651871 11582 layer_factory.hpp:77] Creating layer drop10_0
I0727 08:36:55.651885 11582 net.cpp:94] Creating Layer drop10_0
I0727 08:36:55.651893 11582 net.cpp:435] drop10_0 <- ip9_0
I0727 08:36:55.651903 11582 net.cpp:396] drop10_0 -> ip9_0 (in-place)
I0727 08:36:55.651964 11582 net.cpp:144] Setting up drop10_0
I0727 08:36:55.651975 11582 net.cpp:151] Top shape: 16 64 (1024)
I0727 08:36:55.651983 11582 net.cpp:159] Memory required for data: 77520192
I0727 08:36:55.651990 11582 layer_factory.hpp:77] Creating layer relu9_0
I0727 08:36:55.652000 11582 net.cpp:94] Creating Layer relu9_0
I0727 08:36:55.652009 11582 net.cpp:435] relu9_0 <- ip9_0
I0727 08:36:55.652019 11582 net.cpp:396] relu9_0 -> ip9_0 (in-place)
I0727 08:36:55.652030 11582 net.cpp:144] Setting up relu9_0
I0727 08:36:55.652040 11582 net.cpp:151] Top shape: 16 64 (1024)
I0727 08:36:55.652047 11582 net.cpp:159] Memory required for data: 77524288
I0727 08:36:55.652055 11582 layer_factory.hpp:77] Creating layer ip10_0
I0727 08:36:55.652066 11582 net.cpp:94] Creating Layer ip10_0
I0727 08:36:55.652074 11582 net.cpp:435] ip10_0 <- ip9_0
I0727 08:36:55.652093 11582 net.cpp:409] ip10_0 -> ip10_0
I0727 08:36:55.652387 11582 net.cpp:144] Setting up ip10_0
I0727 08:36:55.652400 11582 net.cpp:151] Top shape: 16 64 (1024)
I0727 08:36:55.652406 11582 net.cpp:159] Memory required for data: 77528384
I0727 08:36:55.652418 11582 layer_factory.hpp:77] Creating layer drop11_0
I0727 08:36:55.652429 11582 net.cpp:94] Creating Layer drop11_0
I0727 08:36:55.652437 11582 net.cpp:435] drop11_0 <- ip10_0
I0727 08:36:55.652451 11582 net.cpp:396] drop11_0 -> ip10_0 (in-place)
I0727 08:36:55.652493 11582 net.cpp:144] Setting up drop11_0
I0727 08:36:55.652503 11582 net.cpp:151] Top shape: 16 64 (1024)
I0727 08:36:55.652510 11582 net.cpp:159] Memory required for data: 77532480
I0727 08:36:55.652518 11582 layer_factory.hpp:77] Creating layer relu10_0
I0727 08:36:55.652539 11582 net.cpp:94] Creating Layer relu10_0
I0727 08:36:55.652546 11582 net.cpp:435] relu10_0 <- ip10_0
I0727 08:36:55.652556 11582 net.cpp:396] relu10_0 -> ip10_0 (in-place)
I0727 08:36:55.652568 11582 net.cpp:144] Setting up relu10_0
I0727 08:36:55.652582 11582 net.cpp:151] Top shape: 16 64 (1024)
I0727 08:36:55.652590 11582 net.cpp:159] Memory required for data: 77536576
I0727 08:36:55.652596 11582 layer_factory.hpp:77] Creating layer finalip
I0727 08:36:55.652607 11582 net.cpp:94] Creating Layer finalip
I0727 08:36:55.652614 11582 net.cpp:435] finalip <- ip10_0
I0727 08:36:55.652626 11582 net.cpp:409] finalip -> ipFinal
I0727 08:36:55.652853 11582 net.cpp:144] Setting up finalip
I0727 08:36:55.652864 11582 net.cpp:151] Top shape: 16 174 (2784)
I0727 08:36:55.652871 11582 net.cpp:159] Memory required for data: 77547712
I0727 08:36:55.652884 11582 layer_factory.hpp:77] Creating layer loss
I0727 08:36:55.652907 11582 net.cpp:94] Creating Layer loss
I0727 08:36:55.652916 11582 net.cpp:435] loss <- ipFinal
I0727 08:36:55.652925 11582 net.cpp:435] loss <- label
I0727 08:36:55.652936 11582 net.cpp:409] loss -> loss
I0727 08:36:55.652956 11582 layer_factory.hpp:77] Creating layer loss
…
I0727 08:36:55.663230 11582 net.cpp:323] The NetState phase (1) differed from the phase (0) specified by a rule in layer Image_data
I0727 08:36:55.664196 11582 net.cpp:52] Initializing net from parameters: 
name: "/tmp/scratch/train_test_00001_00000_01037.prototxt"
state {
  phase: TEST
}
layer {
  name: "Image_data"
  type: "Data"
  top: "data"
  top: "label"
  include {
    phase: TEST
  }
  transform_param {
  }
  data_param {
    source: "/lustre/atlas/proj-shared/hep109/xsy_work/data/minerva_174planecodes/test-lmdb00001"
    batch_size: 100
    backend: LMDB
  }
}
layer {
  name: "Slice Node"
  type: "Slice"
  bottom: "data"
  top: "Slice NodeX1"
  top: "Slice NodeX2"
  top: "data0_1"
  top: "data0_2"
  slice_param {
    slice_point: 2
    slice_point: 4
    slice_point: 6
    axis: 1
  }
}
layer {
  name: "Concatanation Node X views"
  type: "Concat"
  bottom: "Slice NodeX1"
  bottom: "Slice NodeX2"
  top: "data0_0"
  concat_param {
    axis: 3
  }
}
layer {
  name: "conv1_0"
  type: "Convolution"
  bottom: "data0_0"
  top: "conv1_0"
  param {
    lr_mult: 1
    decay_mult: 1
  }
  param {
    lr_mult: 2
    decay_mult: 0
  }
  convolution_param {
    num_output: 12
    weight_filler {
      type: "xavier"
    }
    bias_filler {
      type: "constant"
    }
    pad_h: 3
    pad_w: 1
    kernel_h: 8
    kernel_w: 3
    stride_h: 1
    stride_w: 1
  }
}
layer {
  name: "conv1_1"
  type: "Convolution"
  bottom: "data0_1"
  top: "conv1_1"
  param {
    lr_mult: 1
    decay_mult: 1
  }
  param {
    lr_mult: 2
    decay_mult: 0
  }
  convolution_param {
    num_output: 12
    weight_filler {
      type: "xavier"
    }
    bias_filler {
      type: "constant"
    }
    pad_h: 3
    pad_w: 1
    kernel_h: 8
    kernel_w: 3
    stride_h: 2
    stride_w: 1
  }
}
layer {
  name: "conv1_2"
  type: "Convolution"
  bottom: "data0_2"
  top: "conv1_2"
  param {
    lr_mult: 1
    decay_mult: 1
  }
  param {
    lr_mult: 2
    decay_mult: 0
  }
  convolution_param {
    num_output: 12
    weight_filler {
      type: "xavier"
    }
    bias_filler {
      type: "constant"
    }
    pad_h: 3
    pad_w: 1
    kernel_h: 8
    kernel_w: 3
    stride_h: 2
    stride_w: 1
  }
}
layer {
  name: "relu1_0"
  type: "ReLU"
  bottom: "conv1_0"
  top: "conv1_0"
}
layer {
  name: "relu1_1"
  type: "ReLU"
  bottom: "conv1_1"
  top: "conv1_1"
}
layer {
  name: "relu1_2"
  type: "ReLU"
  bottom: "conv1_2"
  top: "conv1_2"
}
layer {
  name: "pool2_0"
  type: "Pooling"
  bottom: "conv1_0"
  top: "pool2_0"
  pooling_param {
    pool: MAX
    kernel_h: 2
    kernel_w: 1
    stride_h: 2
    stride_w: 1
  }
}
layer {
  name: "pool2_1"
  type: "Pooling"
  bottom: "conv1_1"
  top: "pool2_1"
  pooling_param {
    pool: MAX
    kernel_h: 2
    kernel_w: 1
    stride_h: 2
    stride_w: 1
  }
}
layer {
  name: "pool2_2"
  type: "Pooling"
  bottom: "conv1_2"
  top: "pool2_2"
  pooling_param {
    pool: MAX
    kernel_h: 2
    kernel_w: 1
    stride_h: 2
    stride_w: 1
  }
}
layer {
  name: "drop3_0"
  type: "Dropout"
  bottom: "pool2_0"
  top: "pool2_0"
  dropout_param {
    dropout_ratio: 0.5
  }
}
layer {
  name: "drop3_1"
  type: "Dropout"
  bottom: "pool2_1"
  top: "pool2_1"
  dropout_param {
    dropout_ratio: 0.5
  }
}
layer {
  name: "drop3_2"
  type: "Dropout"
  bottom: "pool2_2"
  top: "pool2_2"
  dropout_param {
    dropout_ratio: 0.5
  }
}
layer {
  name: "conv3_0"
  type: "Convolution"
  bottom: "pool2_0"
  top: "conv3_0"
  param {
    lr_mult: 1
    decay_mult: 1
  }
  param {
    lr_mult: 2
    decay_mult: 0
  }
  convolution_param {
    num_output: 20
    weight_filler {
      type: "xavier"
    }
    bias_filler {
      type: "constant"
    }
    pad_h: 3
    pad_w: 1
    kernel_h: 7
    kernel_w: 3
    stride_h: 1
    stride_w: 1
  }
}
layer {
  name: "conv3_1"
  type: "Convolution"
  bottom: "pool2_1"
  top: "conv3_1"
  param {
    lr_mult: 1
    decay_mult: 1
  }
  param {
    lr_mult: 2
    decay_mult: 0
  }
  convolution_param {
    num_output: 20
    weight_filler {
      type: "xavier"
    }
    bias_filler {
      type: "constant"
    }
    pad_h: 10
    pad_w: 1
    kernel_h: 21
    kernel_w: 3
    stride_h: 4
    stride_w: 1
  }
}
layer {
  name: "conv3_2"
  type: "Convolution"
  bottom: "pool2_2"
  top: "conv3_2"
  param {
    lr_mult: 1
    decay_mult: 1
  }
  param {
    lr_mult: 2
    decay_mult: 0
  }
  convolution_param {
    num_output: 20
    weight_filler {
      type: "xavier"
    }
    bias_filler {
      type: "constant"
    }
    pad_h: 10
    pad_w: 1
    kernel_h: 21
    kernel_w: 3
    stride_h: 4
    stride_w: 1
  }
}
layer {
  name: "relu3_0"
  type: "ReLU"
  bottom: "conv3_0"
  top: "conv3_0"
}
layer {
  name: "relu3_1"
  type: "ReLU"
  bottom: "conv3_1"
  top: "conv3_1"
}
layer {
  name: "relu3_2"
  type: "ReLU"
  bottom: "conv3_2"
  top: "conv3_2"
}
layer {
  name: "pool4_0"
  type: "Pooling"
  bottom: "conv3_0"
  top: "pool4_0"
  pooling_param {
    pool: MAX
    kernel_h: 2
    kernel_w: 6
    stride_h: 2
    stride_w: 6
  }
}
layer {
  name: "pool4_1"
  type: "Pooling"
  bottom: "conv3_1"
  top: "pool4_1"
  pooling_param {
    pool: MAX
    kernel_h: 1
    kernel_w: 1
    stride_h: 1
    stride_w: 1
  }
}
layer {
  name: "pool4_2"
  type: "Pooling"
  bottom: "conv3_2"
  top: "pool4_2"
  pooling_param {
    pool: MAX
    kernel_h: 1
    kernel_w: 1
    stride_h: 1
    stride_w: 1
  }
}
layer {
  name: "sigmoid4_0"
  type: "Sigmoid"
  bottom: "pool4_0"
  top: "pool4_0"
}
layer {
  name: "sigmoid4_1"
  type: "Sigmoid"
  bottom: "pool4_1"
  top: "pool4_1"
}
layer {
  name: "sigmoid4_2"
  type: "Sigmoid"
  bottom: "pool4_2"
  top: "pool4_2"
}
layer {
  name: "conv5_0"
  type: "Convolution"
  bottom: "pool4_0"
  top: "conv5_0"
  param {
    lr_mult: 1
    decay_mult: 1
  }
  param {
    lr_mult: 2
    decay_mult: 0
  }
  convolution_param {
    num_output: 28
    weight_filler {
      type: "xavier"
    }
    bias_filler {
      type: "constant"
    }
    pad_h: 3
    pad_w: 0
    kernel_h: 7
    kernel_w: 1
    stride_h: 1
    stride_w: 1
  }
}
layer {
  name: "conv5_1"
  type: "Convolution"
  bottom: "pool4_1"
  top: "conv5_1"
  param {
    lr_mult: 1
    decay_mult: 1
  }
  param {
    lr_mult: 2
    decay_mult: 0
  }
  convolution_param {
    num_output: 28
    weight_filler {
      type: "xavier"
    }
    bias_filler {
      type: "constant"
    }
    pad_h: 2
    pad_w: 1
    kernel_h: 6
    kernel_w: 3
    stride_h: 2
    stride_w: 1
  }
}
layer {
  name: "conv5_2"
  type: "Convolution"
  bottom: "pool4_2"
  top: "conv5_2"
  param {
    lr_mult: 1
    decay_mult: 1
  }
  param {
    lr_mult: 2
    decay_mult: 0
  }
  convolution_param {
    num_output: 28
    weight_filler {
      type: "xavier"
    }
    bias_filler {
      type: "constant"
    }
    pad_h: 2
    pad_w: 1
    kernel_h: 6
    kernel_w: 3
    stride_h: 2
    stride_w: 1
  }
}
layer {
  name: "relu5_0"
  type: "ReLU"
  bottom: "conv5_0"
  top: "conv5_0"
}
layer {
  name: "relu5_1"
  type: "ReLU"
  bottom: "conv5_1"
  top: "conv5_1"
}
layer {
  name: "relu5_2"
  type: "ReLU"
  bottom: "conv5_2"
  top: "conv5_2"
}
layer {
  name: "pool6_0"
  type: "Pooling"
  bottom: "conv5_0"
  top: "pool6_0"
  pooling_param {
    pool: MAX
    kernel_h: 2
    kernel_w: 1
    stride_h: 2
    stride_w: 1
  }
}
layer {
  name: "pool6_1"
  type: "Pooling"
  bottom: "conv5_1"
  top: "pool6_1"
  pooling_param {
    pool: MAX
    kernel_h: 1
    kernel_w: 1
    stride_h: 1
    stride_w: 1
  }
}
layer {
  name: "pool6_2"
  type: "Pooling"
  bottom: "conv5_2"
  top: "pool6_2"
  pooling_param {
    pool: MAX
    kernel_h: 1
    kernel_w: 1
    stride_h: 1
    stride_w: 1
  }
}
layer {
  name: "conv7_0"
  type: "Convolution"
  bottom: "pool6_0"
  top: "conv7_0"
  param {
    lr_mult: 1
    decay_mult: 1
  }
  param {
    lr_mult: 2
    decay_mult: 0
  }
  convolution_param {
    num_output: 36
    weight_filler {
      type: "xavier"
    }
    bias_filler {
      type: "constant"
    }
    pad_h: 3
    pad_w: 0
    kernel_h: 7
    kernel_w: 1
    stride_h: 1
    stride_w: 1
  }
}
layer {
  name: "conv7_1"
  type: "Convolution"
  bottom: "pool6_1"
  top: "conv7_1"
  param {
    lr_mult: 1
    decay_mult: 1
  }
  param {
    lr_mult: 2
    decay_mult: 0
  }
  convolution_param {
    num_output: 36
    weight_filler {
      type: "xavier"
    }
    bias_filler {
      type: "constant"
    }
    pad_h: 1
    pad_w: 1
    kernel_h: 4
    kernel_w: 3
    stride_h: 2
    stride_w: 1
  }
}
layer {
  name: "conv7_2"
  type: "Convolution"
  bottom: "pool6_2"
  top: "conv7_2"
  param {
    lr_mult: 1
    decay_mult: 1
  }
  param {
    lr_mult: 2
    decay_mult: 0
  }
  convolution_param {
    num_output: 36
    weight_filler {
      type: "xavier"
    }
    bias_filler {
      type: "constant"
    }
    pad_h: 1
    pad_w: 1
    kernel_h: 4
    kernel_w: 3
    stride_h: 2
    stride_w: 1
  }
}
layer {
  name: "relu7_0"
  type: "ReLU"
  bottom: "conv7_0"
  top: "conv7_0"
}
layer {
  name: "relu7_1"
  type: "ReLU"
  bottom: "conv7_1"
  top: "conv7_1"
}
layer {
  name: "relu7_2"
  type: "ReLU"
  bottom: "conv7_2"
  top: "conv7_2"
}
layer {
  name: "pool8_0"
  type: "Pooling"
  bottom: "conv7_0"
  top: "pool8_0"
  pooling_param {
    pool: MAX
    kernel_h: 2
    kernel_w: 1
    stride_h: 2
    stride_w: 1
  }
}
layer {
  name: "pool8_1"
  type: "Pooling"
  bottom: "conv7_1"
  top: "pool8_1"
  pooling_param {
    pool: MAX
    kernel_h: 1
    kernel_w: 1
    stride_h: 1
    stride_w: 1
  }
}
layer {
  name: "pool8_2"
  type: "Pooling"
  bottom: "conv7_2"
  top: "pool8_2"
  pooling_param {
    pool: MAX
    kernel_h: 1
    kernel_w: 1
    stride_h: 1
    stride_w: 1
  }
}
layer {
  name: "flat8_0"
  type: "Flatten"
  bottom: "pool8_0"
  top: "flat8_0"
}
layer {
  name: "flat8_1"
  type: "Flatten"
  bottom: "pool8_1"
  top: "flat8_1"
}
layer {
  name: "flat8_2"
  type: "Flatten"
  bottom: "pool8_2"
  top: "flat8_2"
}
layer {
  name: "concat8_0"
  type: "Concat"
  bottom: "flat8_0"
  bottom: "flat8_1"
  bottom: "flat8_2"
  top: "concat8_0"
}
layer {
  name: "ip9_0"
  type: "InnerProduct"
  bottom: "concat8_0"
  top: "ip9_0"
  param {
    lr_mult: 1
    decay_mult: 1
  }
  param {
    lr_mult: 2
    decay_mult: 0
  }
  inner_product_param {
    num_output: 64
    weight_filler {
      type: "gaussian"
    }
    bias_filler {
      type: "constant"
    }
  }
}
layer {
  name: "drop10_0"
  type: "Dropout"
  bottom: "ip9_0"
  top: "ip9_0"
  dropout_param {
    dropout_ratio: 0.1
  }
}
layer {
  name: "relu9_0"
  type: "ReLU"
  bottom: "ip9_0"
  top: "ip9_0"
}
layer {
  name: "ip10_0"
  type: "InnerProduct"
  bottom: "ip9_0"
  top: "ip10_0"
  param {
    lr_mult: 1
    decay_mult: 1
  }
  param {
    lr_mult: 2
    decay_mult: 0
  }
  inner_product_param {
    num_output: 64
    weight_filler {
      type: "xavier"
    }
    bias_filler {
      type: "constant"
    }
  }
}
layer {
  name: "drop11_0"
  type: "Dropout"
  bottom: "ip10_0"
  top: "ip10_0"
  dropout_param {
    dropout_ratio: 0.1
  }
}
layer {
  name: "relu10_0"
  type: "ReLU"
  bottom: "ip10_0"
  top: "ip10_0"
}
layer {
  name: "finalip"
  type: "InnerProduct"
  bottom: "ip10_0"
  top: "ipFinal"
  inner_product_param {
    num_output: 174
  }
}
layer {
  name: "accuracy"
  type: "Accuracy"
  bottom: "ipFinal"
  bottom: "label"
  top: "accuracy"
  include {
    phase: TEST
  }
}
layer {
  name: "loss"
  type: "SoftmaxWithLoss"
  bottom: "ipFinal"
  bottom: "label"
  top: "loss"
}
I0727 08:36:55.664595 11582 layer_factory.hpp:77] Creating layer Image_data
I0727 08:36:55.666013 11582 net.cpp:94] Creating Layer Image_data
I0727 08:36:55.666031 11582 net.cpp:409] Image_data -> data
I0727 08:36:55.666046 11582 net.cpp:409] Image_data -> label
I0727 08:36:55.672520 11621 db_lmdb.cpp:35] Opened lmdb /lustre/atlas/proj-shared/hep109/xsy_work/data/minerva_174planecodes/test-lmdb00001
I0727 08:36:55.676918 11582 data_layer.cpp:76] output data size: 100,8,127,47
I0727 08:36:55.818233 11582 net.cpp:144] Setting up Image_data
I0727 08:36:55.818267 11582 net.cpp:151] Top shape: 100 8 127 47 (4775200)
I0727 08:36:55.818279 11582 net.cpp:151] Top shape: 100 (100)
I0727 08:36:55.818287 11582 net.cpp:159] Memory required for data: 19101200
I0727 08:36:55.818305 11582 layer_factory.hpp:77] Creating layer label_Image_data_1_split
I0727 08:36:55.818322 11582 net.cpp:94] Creating Layer label_Image_data_1_split
I0727 08:36:55.818331 11582 net.cpp:435] label_Image_data_1_split <- label
I0727 08:36:55.818346 11582 net.cpp:409] label_Image_data_1_split -> label_Image_data_1_split_0
I0727 08:36:55.818361 11582 net.cpp:409] label_Image_data_1_split -> label_Image_data_1_split_1
I0727 08:36:55.818483 11582 net.cpp:144] Setting up label_Image_data_1_split
I0727 08:36:55.818500 11582 net.cpp:151] Top shape: 100 (100)
I0727 08:36:55.818509 11582 net.cpp:151] Top shape: 100 (100)
I0727 08:36:55.818517 11582 net.cpp:159] Memory required for data: 19102000
I0727 08:36:55.818524 11582 layer_factory.hpp:77] Creating layer Slice Node
I0727 08:36:55.818537 11582 net.cpp:94] Creating Layer Slice Node
I0727 08:36:55.818545 11582 net.cpp:435] Slice Node <- data
I0727 08:36:55.818557 11582 net.cpp:409] Slice Node -> Slice NodeX1
I0727 08:36:55.818572 11582 net.cpp:409] Slice Node -> Slice NodeX2
I0727 08:36:55.818586 11582 net.cpp:409] Slice Node -> data0_1
I0727 08:36:55.818600 11582 net.cpp:409] Slice Node -> data0_2
I0727 08:36:55.818734 11582 net.cpp:144] Setting up Slice Node
I0727 08:36:55.818745 11582 net.cpp:151] Top shape: 100 2 127 47 (1193800)
I0727 08:36:55.818756 11582 net.cpp:151] Top shape: 100 2 127 47 (1193800)
I0727 08:36:55.818765 11582 net.cpp:151] Top shape: 100 2 127 47 (1193800)
I0727 08:36:55.818775 11582 net.cpp:151] Top shape: 100 2 127 47 (1193800)
I0727 08:36:55.818783 11582 net.cpp:159] Memory required for data: 38202800
I0727 08:36:55.818790 11582 layer_factory.hpp:77] Creating layer Concatanation Node X views
I0727 08:36:55.818801 11582 net.cpp:94] Creating Layer Concatanation Node X views
I0727 08:36:55.818809 11582 net.cpp:435] Concatanation Node X views <- Slice NodeX1
I0727 08:36:55.818819 11582 net.cpp:435] Concatanation Node X views <- Slice NodeX2
I0727 08:36:55.818830 11582 net.cpp:409] Concatanation Node X views -> data0_0
I0727 08:36:55.818872 11582 net.cpp:144] Setting up Concatanation Node X views
I0727 08:36:55.818883 11582 net.cpp:151] Top shape: 100 2 127 94 (2387600)
I0727 08:36:55.818891 11582 net.cpp:159] Memory required for data: 47753200
I0727 08:36:55.818898 11582 layer_factory.hpp:77] Creating layer conv1_0
I0727 08:36:55.818914 11582 net.cpp:94] Creating Layer conv1_0
I0727 08:36:55.818922 11582 net.cpp:435] conv1_0 <- data0_0
I0727 08:36:55.818934 11582 net.cpp:409] conv1_0 -> conv1_0
I0727 08:36:55.839974 11582 net.cpp:144] Setting up conv1_0
I0727 08:36:55.840003 11582 net.cpp:151] Top shape: 100 12 126 94 (14212800)
I0727 08:36:55.840014 11582 net.cpp:159] Memory required for data: 104604400
I0727 08:36:55.840039 11582 layer_factory.hpp:77] Creating layer conv1_1
I0727 08:36:55.840061 11582 net.cpp:94] Creating Layer conv1_1
I0727 08:36:55.840073 11582 net.cpp:435] conv1_1 <- data0_1
I0727 08:36:55.840090 11582 net.cpp:409] conv1_1 -> conv1_1
I0727 08:36:55.846016 11582 net.cpp:144] Setting up conv1_1
I0727 08:36:55.846038 11582 net.cpp:151] Top shape: 100 12 63 47 (3553200)
I0727 08:36:55.846046 11582 net.cpp:159] Memory required for data: 118817200
I0727 08:36:55.846065 11582 layer_factory.hpp:77] Creating layer conv1_2
I0727 08:36:55.846081 11582 net.cpp:94] Creating Layer conv1_2
I0727 08:36:55.846091 11582 net.cpp:435] conv1_2 <- data0_2
I0727 08:36:55.846102 11582 net.cpp:409] conv1_2 -> conv1_2
I0727 08:36:55.851613 11582 net.cpp:144] Setting up conv1_2
I0727 08:36:55.851640 11582 net.cpp:151] Top shape: 100 12 63 47 (3553200)
I0727 08:36:55.851650 11582 net.cpp:159] Memory required for data: 133030000
I0727 08:36:55.851675 11582 layer_factory.hpp:77] Creating layer relu1_0
I0727 08:36:55.851691 11582 net.cpp:94] Creating Layer relu1_0
I0727 08:36:55.851702 11582 net.cpp:435] relu1_0 <- conv1_0
I0727 08:36:55.851716 11582 net.cpp:396] relu1_0 -> conv1_0 (in-place)
I0727 08:36:55.851735 11582 net.cpp:144] Setting up relu1_0
I0727 08:36:55.851749 11582 net.cpp:151] Top shape: 100 12 126 94 (14212800)
I0727 08:36:55.851759 11582 net.cpp:159] Memory required for data: 189881200
I0727 08:36:55.851775 11582 layer_factory.hpp:77] Creating layer relu1_1
I0727 08:36:55.851790 11582 net.cpp:94] Creating Layer relu1_1
I0727 08:36:55.851801 11582 net.cpp:435] relu1_1 <- conv1_1
I0727 08:36:55.851814 11582 net.cpp:396] relu1_1 -> conv1_1 (in-place)
I0727 08:36:55.851830 11582 net.cpp:144] Setting up relu1_1
I0727 08:36:55.851851 11582 net.cpp:151] Top shape: 100 12 63 47 (3553200)
I0727 08:36:55.851861 11582 net.cpp:159] Memory required for data: 204094000
I0727 08:36:55.851871 11582 layer_factory.hpp:77] Creating layer relu1_2
I0727 08:36:55.851884 11582 net.cpp:94] Creating Layer relu1_2
I0727 08:36:55.851896 11582 net.cpp:435] relu1_2 <- conv1_2
I0727 08:36:55.851907 11582 net.cpp:396] relu1_2 -> conv1_2 (in-place)
I0727 08:36:55.851923 11582 net.cpp:144] Setting up relu1_2
I0727 08:36:55.851938 11582 net.cpp:151] Top shape: 100 12 63 47 (3553200)
I0727 08:36:55.851946 11582 net.cpp:159] Memory required for data: 218306800
I0727 08:36:55.851956 11582 layer_factory.hpp:77] Creating layer pool2_0
I0727 08:36:55.851971 11582 net.cpp:94] Creating Layer pool2_0
I0727 08:36:55.851981 11582 net.cpp:435] pool2_0 <- conv1_0
I0727 08:36:55.851995 11582 net.cpp:409] pool2_0 -> pool2_0
I0727 08:36:55.852109 11582 net.cpp:144] Setting up pool2_0
I0727 08:36:55.852123 11582 net.cpp:151] Top shape: 100 12 63 94 (7106400)
I0727 08:36:55.852133 11582 net.cpp:159] Memory required for data: 246732400
I0727 08:36:55.852144 11582 layer_factory.hpp:77] Creating layer pool2_1
I0727 08:36:55.852157 11582 net.cpp:94] Creating Layer pool2_1
I0727 08:36:55.852167 11582 net.cpp:435] pool2_1 <- conv1_1
I0727 08:36:55.852181 11582 net.cpp:409] pool2_1 -> pool2_1
I0727 08:36:55.852273 11582 net.cpp:144] Setting up pool2_1
I0727 08:36:55.852296 11582 net.cpp:151] Top shape: 100 12 32 47 (1804800)
I0727 08:36:55.852306 11582 net.cpp:159] Memory required for data: 253951600
I0727 08:36:55.852316 11582 layer_factory.hpp:77] Creating layer pool2_2
I0727 08:36:55.852330 11582 net.cpp:94] Creating Layer pool2_2
I0727 08:36:55.852340 11582 net.cpp:435] pool2_2 <- conv1_2
I0727 08:36:55.852354 11582 net.cpp:409] pool2_2 -> pool2_2
I0727 08:36:55.852445 11582 net.cpp:144] Setting up pool2_2
I0727 08:36:55.852460 11582 net.cpp:151] Top shape: 100 12 32 47 (1804800)
I0727 08:36:55.852469 11582 net.cpp:159] Memory required for data: 261170800
I0727 08:36:55.852479 11582 layer_factory.hpp:77] Creating layer drop3_0
I0727 08:36:55.852494 11582 net.cpp:94] Creating Layer drop3_0
I0727 08:36:55.852504 11582 net.cpp:435] drop3_0 <- pool2_0
I0727 08:36:55.852516 11582 net.cpp:396] drop3_0 -> pool2_0 (in-place)
I0727 08:36:55.852571 11582 net.cpp:144] Setting up drop3_0
I0727 08:36:55.852584 11582 net.cpp:151] Top shape: 100 12 63 94 (7106400)
I0727 08:36:55.852593 11582 net.cpp:159] Memory required for data: 289596400
I0727 08:36:55.852603 11582 layer_factory.hpp:77] Creating layer drop3_1
I0727 08:36:55.852617 11582 net.cpp:94] Creating Layer drop3_1
I0727 08:36:55.852627 11582 net.cpp:435] drop3_1 <- pool2_1
I0727 08:36:55.852639 11582 net.cpp:396] drop3_1 -> pool2_1 (in-place)
I0727 08:36:55.852691 11582 net.cpp:144] Setting up drop3_1
I0727 08:36:55.852705 11582 net.cpp:151] Top shape: 100 12 32 47 (1804800)
I0727 08:36:55.852715 11582 net.cpp:159] Memory required for data: 296815600
I0727 08:36:55.852725 11582 layer_factory.hpp:77] Creating layer drop3_2
I0727 08:36:55.852738 11582 net.cpp:94] Creating Layer drop3_2
I0727 08:36:55.852748 11582 net.cpp:435] drop3_2 <- pool2_2
I0727 08:36:55.852761 11582 net.cpp:396] drop3_2 -> pool2_2 (in-place)
I0727 08:36:55.852813 11582 net.cpp:144] Setting up drop3_2
I0727 08:36:55.852826 11582 net.cpp:151] Top shape: 100 12 32 47 (1804800)
I0727 08:36:55.852836 11582 net.cpp:159] Memory required for data: 304034800
I0727 08:36:55.852846 11582 layer_factory.hpp:77] Creating layer conv3_0
I0727 08:36:55.852865 11582 net.cpp:94] Creating Layer conv3_0
I0727 08:36:55.852876 11582 net.cpp:435] conv3_0 <- pool2_0
I0727 08:36:55.852890 11582 net.cpp:409] conv3_0 -> conv3_0
I0727 08:36:55.883564 11582 net.cpp:144] Setting up conv3_0
I0727 08:36:55.883587 11582 net.cpp:151] Top shape: 100 20 63 94 (11844000)
I0727 08:36:55.883595 11582 net.cpp:159] Memory required for data: 351410800
I0727 08:36:55.883611 11582 layer_factory.hpp:77] Creating layer conv3_1
I0727 08:36:55.883630 11582 net.cpp:94] Creating Layer conv3_1
I0727 08:36:55.883646 11582 net.cpp:435] conv3_1 <- pool2_1
I0727 08:36:55.883659 11582 net.cpp:409] conv3_1 -> conv3_1
I0727 08:36:55.890985 11582 net.cpp:144] Setting up conv3_1
I0727 08:36:55.891010 11582 net.cpp:151] Top shape: 100 20 8 47 (752000)
I0727 08:36:55.891021 11582 net.cpp:159] Memory required for data: 354418800
I0727 08:36:55.891041 11582 layer_factory.hpp:77] Creating layer conv3_2
I0727 08:36:55.891059 11582 net.cpp:94] Creating Layer conv3_2
I0727 08:36:55.891070 11582 net.cpp:435] conv3_2 <- pool2_2
I0727 08:36:55.891084 11582 net.cpp:409] conv3_2 -> conv3_2
I0727 08:36:55.898649 11582 net.cpp:144] Setting up conv3_2
I0727 08:36:55.898670 11582 net.cpp:151] Top shape: 100 20 8 47 (752000)
I0727 08:36:55.898679 11582 net.cpp:159] Memory required for data: 357426800
I0727 08:36:55.898694 11582 layer_factory.hpp:77] Creating layer relu3_0
I0727 08:36:55.898706 11582 net.cpp:94] Creating Layer relu3_0
I0727 08:36:55.898715 11582 net.cpp:435] relu3_0 <- conv3_0
I0727 08:36:55.898725 11582 net.cpp:396] relu3_0 -> conv3_0 (in-place)
I0727 08:36:55.898741 11582 net.cpp:144] Setting up relu3_0
I0727 08:36:55.898751 11582 net.cpp:151] Top shape: 100 20 63 94 (11844000)
I0727 08:36:55.898758 11582 net.cpp:159] Memory required for data: 404802800
I0727 08:36:55.898766 11582 layer_factory.hpp:77] Creating layer relu3_1
I0727 08:36:55.898778 11582 net.cpp:94] Creating Layer relu3_1
I0727 08:36:55.898785 11582 net.cpp:435] relu3_1 <- conv3_1
I0727 08:36:55.898797 11582 net.cpp:396] relu3_1 -> conv3_1 (in-place)
I0727 08:36:55.898808 11582 net.cpp:144] Setting up relu3_1
I0727 08:36:55.898818 11582 net.cpp:151] Top shape: 100 20 8 47 (752000)
I0727 08:36:55.898825 11582 net.cpp:159] Memory required for data: 407810800
I0727 08:36:55.898833 11582 layer_factory.hpp:77] Creating layer relu3_2
I0727 08:36:55.898842 11582 net.cpp:94] Creating Layer relu3_2
I0727 08:36:55.898850 11582 net.cpp:435] relu3_2 <- conv3_2
I0727 08:36:55.898859 11582 net.cpp:396] relu3_2 -> conv3_2 (in-place)
I0727 08:36:55.898871 11582 net.cpp:144] Setting up relu3_2
I0727 08:36:55.898881 11582 net.cpp:151] Top shape: 100 20 8 47 (752000)
I0727 08:36:55.898888 11582 net.cpp:159] Memory required for data: 410818800
I0727 08:36:55.898895 11582 layer_factory.hpp:77] Creating layer pool4_0
I0727 08:36:55.898906 11582 net.cpp:94] Creating Layer pool4_0
I0727 08:36:55.898914 11582 net.cpp:435] pool4_0 <- conv3_0
I0727 08:36:55.898924 11582 net.cpp:409] pool4_0 -> pool4_0
I0727 08:36:55.899013 11582 net.cpp:144] Setting up pool4_0
I0727 08:36:55.899024 11582 net.cpp:151] Top shape: 100 20 32 16 (1024000)
I0727 08:36:55.899031 11582 net.cpp:159] Memory required for data: 414914800
I0727 08:36:55.899039 11582 layer_factory.hpp:77] Creating layer pool4_1
I0727 08:36:55.899049 11582 net.cpp:94] Creating Layer pool4_1
I0727 08:36:55.899056 11582 net.cpp:435] pool4_1 <- conv3_1
I0727 08:36:55.899065 11582 net.cpp:409] pool4_1 -> pool4_1
I0727 08:36:55.899150 11582 net.cpp:144] Setting up pool4_1
I0727 08:36:55.899161 11582 net.cpp:151] Top shape: 100 20 8 47 (752000)
I0727 08:36:55.899168 11582 net.cpp:159] Memory required for data: 417922800
I0727 08:36:55.899175 11582 layer_factory.hpp:77] Creating layer pool4_2
I0727 08:36:55.899185 11582 net.cpp:94] Creating Layer pool4_2
I0727 08:36:55.899194 11582 net.cpp:435] pool4_2 <- conv3_2
I0727 08:36:55.899204 11582 net.cpp:409] pool4_2 -> pool4_2
I0727 08:36:55.899273 11582 net.cpp:144] Setting up pool4_2
I0727 08:36:55.899283 11582 net.cpp:151] Top shape: 100 20 8 47 (752000)
I0727 08:36:55.899291 11582 net.cpp:159] Memory required for data: 420930800
I0727 08:36:55.899297 11582 layer_factory.hpp:77] Creating layer sigmoid4_0
I0727 08:36:55.899307 11582 net.cpp:94] Creating Layer sigmoid4_0
I0727 08:36:55.899320 11582 net.cpp:435] sigmoid4_0 <- pool4_0
I0727 08:36:55.899330 11582 net.cpp:396] sigmoid4_0 -> pool4_0 (in-place)
I0727 08:36:55.899343 11582 net.cpp:144] Setting up sigmoid4_0
I0727 08:36:55.899353 11582 net.cpp:151] Top shape: 100 20 32 16 (1024000)
I0727 08:36:55.899359 11582 net.cpp:159] Memory required for data: 425026800
I0727 08:36:55.899374 11582 layer_factory.hpp:77] Creating layer sigmoid4_1
I0727 08:36:55.899384 11582 net.cpp:94] Creating Layer sigmoid4_1
I0727 08:36:55.899391 11582 net.cpp:435] sigmoid4_1 <- pool4_1
I0727 08:36:55.899401 11582 net.cpp:396] sigmoid4_1 -> pool4_1 (in-place)
I0727 08:36:55.899412 11582 net.cpp:144] Setting up sigmoid4_1
I0727 08:36:55.899422 11582 net.cpp:151] Top shape: 100 20 8 47 (752000)
I0727 08:36:55.899430 11582 net.cpp:159] Memory required for data: 428034800
I0727 08:36:55.899437 11582 layer_factory.hpp:77] Creating layer sigmoid4_2
I0727 08:36:55.899446 11582 net.cpp:94] Creating Layer sigmoid4_2
I0727 08:36:55.899454 11582 net.cpp:435] sigmoid4_2 <- pool4_2
I0727 08:36:55.899463 11582 net.cpp:396] sigmoid4_2 -> pool4_2 (in-place)
I0727 08:36:55.899475 11582 net.cpp:144] Setting up sigmoid4_2
I0727 08:36:55.899485 11582 net.cpp:151] Top shape: 100 20 8 47 (752000)
I0727 08:36:55.899492 11582 net.cpp:159] Memory required for data: 431042800
I0727 08:36:55.899499 11582 layer_factory.hpp:77] Creating layer conv5_0
I0727 08:36:55.899513 11582 net.cpp:94] Creating Layer conv5_0
I0727 08:36:55.899521 11582 net.cpp:435] conv5_0 <- pool4_0
I0727 08:36:55.899533 11582 net.cpp:409] conv5_0 -> conv5_0
I0727 08:36:55.902729 11582 net.cpp:144] Setting up conv5_0
I0727 08:36:55.902750 11582 net.cpp:151] Top shape: 100 28 32 16 (1433600)
I0727 08:36:55.902758 11582 net.cpp:159] Memory required for data: 436777200
I0727 08:36:55.902776 11582 layer_factory.hpp:77] Creating layer conv5_1
I0727 08:36:55.902796 11582 net.cpp:94] Creating Layer conv5_1
I0727 08:36:55.902806 11582 net.cpp:435] conv5_1 <- pool4_1
I0727 08:36:55.902820 11582 net.cpp:409] conv5_1 -> conv5_1
I0727 08:36:55.911671 11582 net.cpp:144] Setting up conv5_1
I0727 08:36:55.911689 11582 net.cpp:151] Top shape: 100 28 4 47 (526400)
I0727 08:36:55.911696 11582 net.cpp:159] Memory required for data: 438882800
I0727 08:36:55.911710 11582 layer_factory.hpp:77] Creating layer conv5_2
I0727 08:36:55.911729 11582 net.cpp:94] Creating Layer conv5_2
I0727 08:36:55.911738 11582 net.cpp:435] conv5_2 <- pool4_2
I0727 08:36:55.911751 11582 net.cpp:409] conv5_2 -> conv5_2
I0727 08:36:55.914892 11582 net.cpp:144] Setting up conv5_2
I0727 08:36:55.914911 11582 net.cpp:151] Top shape: 100 28 4 47 (526400)
I0727 08:36:55.914918 11582 net.cpp:159] Memory required for data: 440988400
I0727 08:36:55.914935 11582 layer_factory.hpp:77] Creating layer relu5_0
I0727 08:36:55.914952 11582 net.cpp:94] Creating Layer relu5_0
I0727 08:36:55.914960 11582 net.cpp:435] relu5_0 <- conv5_0
I0727 08:36:55.914970 11582 net.cpp:396] relu5_0 -> conv5_0 (in-place)
I0727 08:36:55.914984 11582 net.cpp:144] Setting up relu5_0
I0727 08:36:55.914995 11582 net.cpp:151] Top shape: 100 28 32 16 (1433600)
I0727 08:36:55.915002 11582 net.cpp:159] Memory required for data: 446722800
I0727 08:36:55.915009 11582 layer_factory.hpp:77] Creating layer relu5_1
I0727 08:36:55.915024 11582 net.cpp:94] Creating Layer relu5_1
I0727 08:36:55.915032 11582 net.cpp:435] relu5_1 <- conv5_1
I0727 08:36:55.915042 11582 net.cpp:396] relu5_1 -> conv5_1 (in-place)
I0727 08:36:55.915055 11582 net.cpp:144] Setting up relu5_1
I0727 08:36:55.915064 11582 net.cpp:151] Top shape: 100 28 4 47 (526400)
I0727 08:36:55.915071 11582 net.cpp:159] Memory required for data: 448828400
I0727 08:36:55.915079 11582 layer_factory.hpp:77] Creating layer relu5_2
I0727 08:36:55.915088 11582 net.cpp:94] Creating Layer relu5_2
I0727 08:36:55.915096 11582 net.cpp:435] relu5_2 <- conv5_2
I0727 08:36:55.915109 11582 net.cpp:396] relu5_2 -> conv5_2 (in-place)
I0727 08:36:55.915122 11582 net.cpp:144] Setting up relu5_2
I0727 08:36:55.915132 11582 net.cpp:151] Top shape: 100 28 4 47 (526400)
I0727 08:36:55.915143 11582 net.cpp:159] Memory required for data: 450934000
I0727 08:36:55.915150 11582 layer_factory.hpp:77] Creating layer pool6_0
I0727 08:36:55.915164 11582 net.cpp:94] Creating Layer pool6_0
I0727 08:36:55.915174 11582 net.cpp:435] pool6_0 <- conv5_0
I0727 08:36:55.915184 11582 net.cpp:409] pool6_0 -> pool6_0
I0727 08:36:55.915280 11582 net.cpp:144] Setting up pool6_0
I0727 08:36:55.915292 11582 net.cpp:151] Top shape: 100 28 16 16 (716800)
I0727 08:36:55.915298 11582 net.cpp:159] Memory required for data: 453801200
I0727 08:36:55.915307 11582 layer_factory.hpp:77] Creating layer pool6_1
I0727 08:36:55.915326 11582 net.cpp:94] Creating Layer pool6_1
I0727 08:36:55.915341 11582 net.cpp:435] pool6_1 <- conv5_1
I0727 08:36:55.915354 11582 net.cpp:409] pool6_1 -> pool6_1
I0727 08:36:55.915441 11582 net.cpp:144] Setting up pool6_1
I0727 08:36:55.915454 11582 net.cpp:151] Top shape: 100 28 4 47 (526400)
I0727 08:36:55.915462 11582 net.cpp:159] Memory required for data: 455906800
I0727 08:36:55.915472 11582 layer_factory.hpp:77] Creating layer pool6_2
I0727 08:36:55.915490 11582 net.cpp:94] Creating Layer pool6_2
I0727 08:36:55.915499 11582 net.cpp:435] pool6_2 <- conv5_2
I0727 08:36:55.915510 11582 net.cpp:409] pool6_2 -> pool6_2
I0727 08:36:55.915601 11582 net.cpp:144] Setting up pool6_2
I0727 08:36:55.915612 11582 net.cpp:151] Top shape: 100 28 4 47 (526400)
I0727 08:36:55.915621 11582 net.cpp:159] Memory required for data: 458012400
I0727 08:36:55.915629 11582 layer_factory.hpp:77] Creating layer conv7_0
I0727 08:36:55.915648 11582 net.cpp:94] Creating Layer conv7_0
I0727 08:36:55.915657 11582 net.cpp:435] conv7_0 <- pool6_0
I0727 08:36:55.915674 11582 net.cpp:409] conv7_0 -> conv7_0
I0727 08:36:55.925303 11582 net.cpp:144] Setting up conv7_0
I0727 08:36:55.925324 11582 net.cpp:151] Top shape: 100 36 16 16 (921600)
I0727 08:36:55.925333 11582 net.cpp:159] Memory required for data: 461698800
I0727 08:36:55.925348 11582 layer_factory.hpp:77] Creating layer conv7_1
I0727 08:36:55.925371 11582 net.cpp:94] Creating Layer conv7_1
I0727 08:36:55.925380 11582 net.cpp:435] conv7_1 <- pool6_1
I0727 08:36:55.925393 11582 net.cpp:409] conv7_1 -> conv7_1
I0727 08:36:55.928447 11582 net.cpp:144] Setting up conv7_1
I0727 08:36:55.928485 11582 net.cpp:151] Top shape: 100 36 2 47 (338400)
I0727 08:36:55.928494 11582 net.cpp:159] Memory required for data: 463052400
I0727 08:36:55.928511 11582 layer_factory.hpp:77] Creating layer conv7_2
I0727 08:36:55.928529 11582 net.cpp:94] Creating Layer conv7_2
I0727 08:36:55.928537 11582 net.cpp:435] conv7_2 <- pool6_2
I0727 08:36:55.928551 11582 net.cpp:409] conv7_2 -> conv7_2
I0727 08:36:55.931774 11582 net.cpp:144] Setting up conv7_2
I0727 08:36:55.931797 11582 net.cpp:151] Top shape: 100 36 2 47 (338400)
I0727 08:36:55.931807 11582 net.cpp:159] Memory required for data: 464406000
I0727 08:36:55.931824 11582 layer_factory.hpp:77] Creating layer relu7_0
I0727 08:36:55.931839 11582 net.cpp:94] Creating Layer relu7_0
I0727 08:36:55.931850 11582 net.cpp:435] relu7_0 <- conv7_0
I0727 08:36:55.931864 11582 net.cpp:396] relu7_0 -> conv7_0 (in-place)
I0727 08:36:55.931882 11582 net.cpp:144] Setting up relu7_0
I0727 08:36:55.931896 11582 net.cpp:151] Top shape: 100 36 16 16 (921600)
I0727 08:36:55.931905 11582 net.cpp:159] Memory required for data: 468092400
I0727 08:36:55.931915 11582 layer_factory.hpp:77] Creating layer relu7_1
I0727 08:36:55.931929 11582 net.cpp:94] Creating Layer relu7_1
I0727 08:36:55.931939 11582 net.cpp:435] relu7_1 <- conv7_1
I0727 08:36:55.931953 11582 net.cpp:396] relu7_1 -> conv7_1 (in-place)
I0727 08:36:55.931968 11582 net.cpp:144] Setting up relu7_1
I0727 08:36:55.931982 11582 net.cpp:151] Top shape: 100 36 2 47 (338400)
I0727 08:36:55.931993 11582 net.cpp:159] Memory required for data: 469446000
I0727 08:36:55.932003 11582 layer_factory.hpp:77] Creating layer relu7_2
I0727 08:36:55.932015 11582 net.cpp:94] Creating Layer relu7_2
I0727 08:36:55.932026 11582 net.cpp:435] relu7_2 <- conv7_2
I0727 08:36:55.932039 11582 net.cpp:396] relu7_2 -> conv7_2 (in-place)
I0727 08:36:55.932063 11582 net.cpp:144] Setting up relu7_2
I0727 08:36:55.932077 11582 net.cpp:151] Top shape: 100 36 2 47 (338400)
I0727 08:36:55.932086 11582 net.cpp:159] Memory required for data: 470799600
I0727 08:36:55.932096 11582 layer_factory.hpp:77] Creating layer pool8_0
I0727 08:36:55.932111 11582 net.cpp:94] Creating Layer pool8_0
I0727 08:36:55.932129 11582 net.cpp:435] pool8_0 <- conv7_0
I0727 08:36:55.932143 11582 net.cpp:409] pool8_0 -> pool8_0
I0727 08:36:55.932251 11582 net.cpp:144] Setting up pool8_0
I0727 08:36:55.932265 11582 net.cpp:151] Top shape: 100 36 8 16 (460800)
I0727 08:36:55.932276 11582 net.cpp:159] Memory required for data: 472642800
I0727 08:36:55.932293 11582 layer_factory.hpp:77] Creating layer pool8_1
I0727 08:36:55.932307 11582 net.cpp:94] Creating Layer pool8_1
I0727 08:36:55.932317 11582 net.cpp:435] pool8_1 <- conv7_1
I0727 08:36:55.932332 11582 net.cpp:409] pool8_1 -> pool8_1
I0727 08:36:55.932428 11582 net.cpp:144] Setting up pool8_1
I0727 08:36:55.932442 11582 net.cpp:151] Top shape: 100 36 2 47 (338400)
I0727 08:36:55.932452 11582 net.cpp:159] Memory required for data: 473996400
I0727 08:36:55.932461 11582 layer_factory.hpp:77] Creating layer pool8_2
I0727 08:36:55.932476 11582 net.cpp:94] Creating Layer pool8_2
I0727 08:36:55.932485 11582 net.cpp:435] pool8_2 <- conv7_2
I0727 08:36:55.932499 11582 net.cpp:409] pool8_2 -> pool8_2
I0727 08:36:55.932598 11582 net.cpp:144] Setting up pool8_2
I0727 08:36:55.932613 11582 net.cpp:151] Top shape: 100 36 2 47 (338400)
I0727 08:36:55.932622 11582 net.cpp:159] Memory required for data: 475350000
I0727 08:36:55.932632 11582 layer_factory.hpp:77] Creating layer flat8_0
I0727 08:36:55.932662 11582 net.cpp:94] Creating Layer flat8_0
I0727 08:36:55.932672 11582 net.cpp:435] flat8_0 <- pool8_0
I0727 08:36:55.932683 11582 net.cpp:409] flat8_0 -> flat8_0
I0727 08:36:55.932732 11582 net.cpp:144] Setting up flat8_0
I0727 08:36:55.932744 11582 net.cpp:151] Top shape: 100 4608 (460800)
I0727 08:36:55.932754 11582 net.cpp:159] Memory required for data: 477193200
I0727 08:36:55.932761 11582 layer_factory.hpp:77] Creating layer flat8_1
I0727 08:36:55.932773 11582 net.cpp:94] Creating Layer flat8_1
I0727 08:36:55.932782 11582 net.cpp:435] flat8_1 <- pool8_1
I0727 08:36:55.932793 11582 net.cpp:409] flat8_1 -> flat8_1
I0727 08:36:55.932842 11582 net.cpp:144] Setting up flat8_1
I0727 08:36:55.932854 11582 net.cpp:151] Top shape: 100 3384 (338400)
I0727 08:36:55.932862 11582 net.cpp:159] Memory required for data: 478546800
I0727 08:36:55.932871 11582 layer_factory.hpp:77] Creating layer flat8_2
I0727 08:36:55.932883 11582 net.cpp:94] Creating Layer flat8_2
I0727 08:36:55.932891 11582 net.cpp:435] flat8_2 <- pool8_2
I0727 08:36:55.932902 11582 net.cpp:409] flat8_2 -> flat8_2
I0727 08:36:55.932951 11582 net.cpp:144] Setting up flat8_2
I0727 08:36:55.932963 11582 net.cpp:151] Top shape: 100 3384 (338400)
I0727 08:36:55.932971 11582 net.cpp:159] Memory required for data: 479900400
I0727 08:36:55.932979 11582 layer_factory.hpp:77] Creating layer concat8_0
I0727 08:36:55.932991 11582 net.cpp:94] Creating Layer concat8_0
I0727 08:36:55.933001 11582 net.cpp:435] concat8_0 <- flat8_0
I0727 08:36:55.933010 11582 net.cpp:435] concat8_0 <- flat8_1
I0727 08:36:55.933020 11582 net.cpp:435] concat8_0 <- flat8_2
I0727 08:36:55.933032 11582 net.cpp:409] concat8_0 -> concat8_0
I0727 08:36:55.933081 11582 net.cpp:144] Setting up concat8_0
I0727 08:36:55.933094 11582 net.cpp:151] Top shape: 100 11376 (1137600)
I0727 08:36:55.933101 11582 net.cpp:159] Memory required for data: 484450800
I0727 08:36:55.933110 11582 layer_factory.hpp:77] Creating layer ip9_0
I0727 08:36:55.933123 11582 net.cpp:94] Creating Layer ip9_0
I0727 08:36:55.933133 11582 net.cpp:435] ip9_0 <- concat8_0
I0727 08:36:55.933145 11582 net.cpp:409] ip9_0 -> ip9_0
I0727 08:36:55.958753 11582 net.cpp:144] Setting up ip9_0
I0727 08:36:55.958781 11582 net.cpp:151] Top shape: 100 64 (6400)
I0727 08:36:55.958792 11582 net.cpp:159] Memory required for data: 484476400
I0727 08:36:55.958817 11582 layer_factory.hpp:77] Creating layer drop10_0
I0727 08:36:55.958834 11582 net.cpp:94] Creating Layer drop10_0
I0727 08:36:55.958845 11582 net.cpp:435] drop10_0 <- ip9_0
I0727 08:36:55.958859 11582 net.cpp:396] drop10_0 -> ip9_0 (in-place)
I0727 08:36:55.958920 11582 net.cpp:144] Setting up drop10_0
I0727 08:36:55.958933 11582 net.cpp:151] Top shape: 100 64 (6400)
I0727 08:36:55.958952 11582 net.cpp:159] Memory required for data: 484502000
I0727 08:36:55.958962 11582 layer_factory.hpp:77] Creating layer relu9_0
I0727 08:36:55.958976 11582 net.cpp:94] Creating Layer relu9_0
I0727 08:36:55.958986 11582 net.cpp:435] relu9_0 <- ip9_0
I0727 08:36:55.958998 11582 net.cpp:396] relu9_0 -> ip9_0 (in-place)
I0727 08:36:55.959014 11582 net.cpp:144] Setting up relu9_0
I0727 08:36:55.959028 11582 net.cpp:151] Top shape: 100 64 (6400)
I0727 08:36:55.959036 11582 net.cpp:159] Memory required for data: 484527600
I0727 08:36:55.959046 11582 layer_factory.hpp:77] Creating layer ip10_0
I0727 08:36:55.959069 11582 net.cpp:94] Creating Layer ip10_0
I0727 08:36:55.959080 11582 net.cpp:435] ip10_0 <- ip9_0
I0727 08:36:55.959095 11582 net.cpp:409] ip10_0 -> ip10_0
I0727 08:36:55.959471 11582 net.cpp:144] Setting up ip10_0
I0727 08:36:55.959484 11582 net.cpp:151] Top shape: 100 64 (6400)
I0727 08:36:55.959494 11582 net.cpp:159] Memory required for data: 484553200
I0727 08:36:55.959511 11582 layer_factory.hpp:77] Creating layer drop11_0
I0727 08:36:55.959523 11582 net.cpp:94] Creating Layer drop11_0
I0727 08:36:55.959534 11582 net.cpp:435] drop11_0 <- ip10_0
I0727 08:36:55.959547 11582 net.cpp:396] drop11_0 -> ip10_0 (in-place)
I0727 08:36:55.959605 11582 net.cpp:144] Setting up drop11_0
I0727 08:36:55.959619 11582 net.cpp:151] Top shape: 100 64 (6400)
I0727 08:36:55.959628 11582 net.cpp:159] Memory required for data: 484578800
I0727 08:36:55.959638 11582 layer_factory.hpp:77] Creating layer relu10_0
I0727 08:36:55.959651 11582 net.cpp:94] Creating Layer relu10_0
I0727 08:36:55.959661 11582 net.cpp:435] relu10_0 <- ip10_0
I0727 08:36:55.959673 11582 net.cpp:396] relu10_0 -> ip10_0 (in-place)
I0727 08:36:55.959688 11582 net.cpp:144] Setting up relu10_0
I0727 08:36:55.959702 11582 net.cpp:151] Top shape: 100 64 (6400)
I0727 08:36:55.959712 11582 net.cpp:159] Memory required for data: 484604400
I0727 08:36:55.959722 11582 layer_factory.hpp:77] Creating layer finalip
I0727 08:36:55.959734 11582 net.cpp:94] Creating Layer finalip
I0727 08:36:55.959744 11582 net.cpp:435] finalip <- ip10_0
I0727 08:36:55.959762 11582 net.cpp:409] finalip -> ipFinal
I0727 08:36:55.960078 11582 net.cpp:144] Setting up finalip
I0727 08:36:55.960090 11582 net.cpp:151] Top shape: 100 174 (17400)
I0727 08:36:55.960099 11582 net.cpp:159] Memory required for data: 484674000
I0727 08:36:55.960114 11582 layer_factory.hpp:77] Creating layer ipFinal_finalip_0_split
I0727 08:36:55.960130 11582 net.cpp:94] Creating Layer ipFinal_finalip_0_split
I0727 08:36:55.960139 11582 net.cpp:435] ipFinal_finalip_0_split <- ipFinal
I0727 08:36:55.960150 11582 net.cpp:409] ipFinal_finalip_0_split -> ipFinal_finalip_0_split_0
I0727 08:36:55.960165 11582 net.cpp:409] ipFinal_finalip_0_split -> ipFinal_finalip_0_split_1
I0727 08:36:55.960253 11582 net.cpp:144] Setting up ipFinal_finalip_0_split
I0727 08:36:55.960265 11582 net.cpp:151] Top shape: 100 174 (17400)
I0727 08:36:55.960276 11582 net.cpp:151] Top shape: 100 174 (17400)
I0727 08:36:55.960290 11582 net.cpp:159] Memory required for data: 484813200
I0727 08:36:55.960299 11582 layer_factory.hpp:77] Creating layer accuracy
I0727 08:36:55.960319 11582 net.cpp:94] Creating Layer accuracy
I0727 08:36:55.960328 11582 net.cpp:435] accuracy <- ipFinal_finalip_0_split_0
I0727 08:36:55.960340 11582 net.cpp:435] accuracy <- label_Image_data_1_split_0
I0727 08:36:55.960355 11582 net.cpp:409] accuracy -> accuracy
…
